augumentation/CIFARtrainset_mnist + dataset = torchvision.datasets.mnist_net.pth (torch, 184247 bytes, 18 tensors)

conv1.weight f4 [6, 1, 5, 5]
000000 a9 54 20 3e d3 a1 1e 3c cd a2 74 be 0d e7 26 bd
       0.15657295 0.009682137 -0.23890229 -0.04074769
000010 ff 4e fc bd 19 7d c9 3d 1a e3 3e 3d 71 8f 7b be
       -0.12319755 0.098383136 0.0466033 -0.24566437
000020 2d 10 ac bd ed 5a 36 bd ed f2 87 3e 00 2f 70 be
       -0.08401523 -0.044520307 0.26552525 -0.23455429
000030 23 cf 2e be f5 a6 2c 3e 6c d7 8b 3f 40 37 30 3e
       -0.17071204 0.16860564 1.0925117 0.17208576
000040 c6 f3 34 3a b9 76 9d 3d 0e ca 34 3f c4 18 c4 bd
       0.000690278 0.0768866 0.7062081 -0.09575036
000050 d6 0e 00 3e 9f d2 fc bd c4 ee 9b 3d a4 75 65 be
       0.1250566 -0.1234486 0.076139 -0.22408158
000060 c7 20 96 bf bc 08 63 be a5 6b 74 be 37 a2 7b 3e
       -1.1728753 -0.221713 -0.23869188 0.24573599
000070 96 d9 9b 3e bb e4 b2 3e da 3c fe 3d c1 40 8c bd
       0.30439442 0.34940132 0.1241395 -0.06848288
000080 26 86 b5 3c a0 bb 53 3d a1 45 87 3e 8f 65 22 be
       0.022158694 0.051692605 0.2642031 -0.15859054
000090 52 e4 09 ba b8 25 d7 bd ea 9e 0e 3e 2e 00 9b 3e
       -0.00052601576 -0.10505241 0.13927808 0.30273575
0000a0 2f 3f 91 bd 2f e6 7b 3d 5e 30 ee 3d 8e a8 27 3e
       -0.070921294 0.061498817 0.11630319 0.16372892
0000b0 b8 15 93 3e 01 9f 32 3e 24 b5 d5 3d 47 79 50 3e
       0.28727508 0.17443468 0.104349405 0.20358764
0000c0 bd 82 2c 3e bc 1c 4f 3d 38 36 29 bf ab 8b 06 bf
       0.16846748 0.050564513 -0.66098356 -0.52556866
0000d0 e1 3c e4 be 4d c3 f1 be 69 76 95 be 5c 9d 81 be
       -0.44577697 -0.47219315 -0.29191902 -0.25315368
0000e0 56 36 a8 bd ef 14 89 3d e5 9f d7 3d d7 37 21 3e
       -0.08213489 0.06693446 0.10528544 0.15743957
0000f0 4a 05 a9 bd 2f c2 71 3d 58 73 13 3e db ed 87 3e
       -0.08252962 0.05902308 0.14399469 0.26548657
000100 a0 99 2c 3e 7c 5c 60 3e 4c bf 0b 3e 55 bc 96 3e
       0.16855478 0.2191028 0.13647193 0.2944056
000110 88 bb 41 3d 20 6d 31 3e 2d 85 c8 3e a4 77 01 3f
       0.047297984 0.17326784 0.39164105 0.5057318
000120 b0 60 ad 3c fb 47 90 3d f1 19 85 b9 3d d2 de 3e
       0.021164268 0.07044979 -0.00025387065 0.43519774
000130 bc 9a 14 be 61 15 d4 be c3 d9 04 bf a8 06 ad be
       -0.14512151 -0.4142256 -0.5189478 -0.3379414
000140 fc 22 5e 3e dd 79 5b bf 8f e7 40 bf 29 e1 17 be
       0.21693033 -0.85732824 -0.7535333 -0.14831986
000150 53 7e 57 3e 03 cc e6 be cc 19 5f bf 58 5a 98 bd
       0.21044283 -0.45077524 -0.8714874 -0.07439107
000160 dc 1d 23 3e 35 8f b1 3e d7 3e 09 bf 0f 51 a5 be
       0.15929359 0.3467957 -0.5361151 -0.32288405
000170 4e f0 7c 3e b5 06 3a 3e ce ab 90 3e cf e5 14 bf
       0.24701044 0.18166621 0.28256077 -0.5816316
000180 60 05 27 be d7 e6 15 be 38 51 49 bc 35 e1 da 3e
       -0.16310644 -0.1463884 -0.01228743 0.42749944
000190 0e 94 04 3f 3c 47 52 3e 9e b4 57 3e b8 6c b9 3e
       0.51788414 0.20534986 0.21064994 0.36215758
0001a0 34 ee b5 ba dd d6 2c 3b 9e 7f 8b be 16 67 3a be
       -0.0013880194 0.0026373186 -0.27245802 -0.18203387
0001b0 38 68 a9 3c 77 81 02 3f 13 a9 b9 3d 6b 52 95 3e
       0.020679578 0.509788 0.090654515 0.29164442
0001c0 c9 27 23 be 48 de 9f be 3d ea 72 3e 9c ca e8 3d
       -0.15933146 -0.31224275 0.23722167 0.1136677
0001d0 de 39 c9 3e d7 a2 9b 3e 26 94 50 3d 62 13 20 3e
       0.39301962 0.30397674 0.050922535 0.15632394
0001e0 45 9e ef bd 38 15 99 bd be 92 dd 3d 85 cc 9e bd
       -0.117001094 -0.0747475 0.108190045 -0.07753853
0001f0 53 f2 96 3e 72 c7 a7 3d 17 9a f4 3e ea f2 93 3e
       0.29481754 0.08192338 0.4777381 0.28896266
000200 be 62 30 3e f7 aa d1 3d 26 a8 4c bf ae ca ef be
       0.17225167 0.10237687 -0.79944074 -0.4683432
000210 e1 21 7c bc df 03 68 3d b8 b8 a0 bb 61 ee f2 be
       -0.015388937 0.056644317 -0.0049048327 -0.47447494
000220 e8 94 79 bf 06 2b 6a bf 43 c5 17 bf 1c b6 1a bf
       -0.9749284 -0.914719 -0.5928537 -0.60434127
000230 a7 ef 71 3e 7a 3f c8 bb f7 9d a7 be 18 a6 3b be
       0.23626576 -0.0061110826 -0.32737705 -0.18325078
000240 d1 89 d2 be 9f 3b 49 3e ca ea a3 3e d9 d7 55 3e
       -0.4112077 0.1965165 0.32015067 0.2088312
000250 0c f8 8c 3e f4 6f b1 bc
       0.27532995 -0.021659829

conv1.bias f4 [6]
000000 cf 58 ca be f3 c4 d1 3d eb b4 93 bd 83 ea c6 3e
       -0.3952088 0.10242643 -0.07212242 0.38850793
000010 c2 9e e0 be b2 84 f8 3e
       -0.43871123 0.48538738

bn1.weight f4 [6]
000000 78 88 3c 3f 60 fb 72 3f a1 1c 91 3f 43 a1 a9 3f
       0.73645735 0.9491482 1.1336862 1.3252338
000010 18 32 59 3f 76 ad a8 3f
       0.8484206 1.3177936

bn1.bias f4 [6]
000000 ac 85 7f 3b bb 09 64 3e 9f e8 15 be 13 11 3a 3e
       0.0038989587 0.22269337 -0.14639519 0.18170576
000010 19 48 14 3e 36 ba 06 3e
       0.14480628 0.13156971

bn1.running_mean f4 [6]
000000 d2 da 68 3d f4 f5 d0 3e 27 fd 1f 3e 64 60 ae 3e
       0.05684931 0.40812647 0.15623914 0.34057915
000010 90 dc 15 3e 40 27 b0 3e
       0.14634919 0.34404945

bn1.running_var f4 [6]
000000 ae 9d 10 3d e6 54 89 3e 30 e0 e0 3d 99 aa dc 3d
       0.035306625 0.26822585 0.1098026 0.107747264
000010 a2 40 86 3d 2b 5f b7 3d
       0.065552965 0.08953699

conv2.weight f4 [16, 6, 5, 5]
000000 d9 69 da bd d9 cd 88 3b 2c f7 3d bd 74 ac 17 be
       -0.1066472 0.0041749296 -0.0463783 -0.1481188
000010 ac cd 15 bd cc 9e 82 bd 30 7a 0d be e6 e3 05 be
       -0.036573097 -0.06377944 -0.13816142 -0.13075218
000020 db d4 aa be 9e 6f 51 be 0f fd 0a bd 04 a4 1d bd
       -0.3336552 -0.20452735 -0.03393274 -0.038486496
000030 87 1c 2c be 0b 9a 5d be f5 25 38 be dc 81 fe 3d
       -0.16807757 -0.21640794 -0.1798323 0.124271125
000040 be 78 c3 3d 74 4b 83 bc 7a c8 1e 3c 7b 52 53 be
       0.09544514 -0.01602719 0.009691352 -0.20636933
000050 81 a3 ec 3d a7 53 d6 3d a9 62 15 3e 69 ad c3 3d
       0.115546234 0.10465174 0.14588417 0.0955456
000060 d3 05 5f 3c 01 d5 40 be 5e cc 22 be 7d 1c 1d be
       0.013612228 -0.18831255 -0.15898272 -0.15342899
000070 d7 70 fc bd ba a3 47 bd eb 74 b3 bd 58 7e 53 be
       -0.1232621 -0.048740126 -0.08762535 -0.20653665
000080 1e 87 33 be 70 14 59 be b9 26 14 be 26 13 2e 3d
       -0.17532012 -0.21199203 -0.14467897 0.04249873
000090 f9 de 3c 3d c1 ab ca bd 9d b8 db bd b9 14 3a be
       0.04611108 -0.09896041 -0.107285716 -0.18171968
0000a0 ff 30 01 3e 4d c7 86 3d 4e ab e5 bc 3d f2 c4 3b
       0.12616347 0.06580982 -0.028035786 0.0060103224
0000b0 88 1e 7a bd 14 66 9b bc 59 23 e3 bb 6a b3 d5 3d
       -0.061064273 -0.018969573 -0.006931704 0.10434611
0000c0 04 82 a3 3e 42 38 5d 3e d1 46 3d 3e bb da a4 3e
       0.31935132 0.21603492 0.18484046 0.32198128
0000d0 46 96 6e 3e c4 78 2b 3e bc fd 75 3d 99 7c ab 3d
       0.23299512 0.16745287 0.060056433 0.083733745
0000e0 92 68 87 bc e9 28 2e 3d 85 41 0d 3d 56 48 ae 3d
       -0.016529355 0.042519484 0.034486312 0.08509891
0000f0 d1 78 47 3d 7d 89 9e bc 00 70 43 be ed 7d 10 be
       0.048699204 -0.019352669 -0.19085693 -0.14110537
000100 bd 29 05 be 02 58 0e 3e cf 14 51 3c 45 d9 44 be
       -0.13004203 0.1390076 0.012761309 -0.19223507
000110 95 f0 b9 be d8 05 9b be 75 e4 2d 3e 65 89 d9 3d
       -0.36316362 -0.30277896 0.1698168 0.10621909
000120 5d 4f 03 3e 9f c5 86 3d 0f 7b 72 3c e8 f3 14 be
       0.12823243 0.06580662 0.014799847 -0.14546168
000130 6d 45 b3 bd 94 b9 8a 3d 95 29 b3 3d 8f 6b f4 3c
       -0.08753476 0.067736775 0.087481655 0.029836444
000140 e2 34 85 bd 3b c0 bc bd 1c 6c 48 be 2a 15 30 be
       -0.06504227 -0.092163526 -0.1957249 -0.17195573
000150 ec d7 7a be ca 92 9e bb e5 bb d2 bb f0 89 83 bd
       -0.2449643 -0.004839276 -0.00643109 -0.06422794
000160 a1 b2 0d be 15 7c d4 be dd d4 aa bd 7d ce 4e 3e
       -0.13837673 -0.41500917 -0.08341382 0.20195957
000170 ee b8 89 bc d6 90 83 3d e8 92 ae bd 04 d0 23 3d
       -0.016811814 0.0642411 -0.08524114 0.0399933
000180 7e 39 37 3e 5d 69 d5 3d e1 8a 61 3e 12 4f 7b 3e
       0.17893025 0.10420487 0.22025634 0.24541882
000190 d1 0f f0 bd 9f f0 98 bc 56 b8 e1 bd b2 b1 88 be
       -0.11721767 -0.018669425 -0.110214874 -0.2669807
0001a0 61 76 c4 bd 8a 6a 35 3e 7a 4c 87 3d b0 a9 a3 3b
       -0.095928915 0.17716423 0.066063836 0.0049945936
0001b0 83 f7 ec bd 77 15 ae bd 0b 0d 17 3d fe e2 0c 3c
       -0.115706466 -0.08500188 0.036877673 0.008599041
0001c0 db a7 93 3d 95 83 20 3e 12 8a f8 bd c4 88 e0 3d
       0.0720975 0.15675195 -0.1213571 0.10963586
0001d0 65 bd 37 bd f0 14 4d 3d a2 61 45 3b 70 1b 14 be
       -0.044858355 0.050068796 0.0030118008 -0.14463592
0001e0 9a 63 00 3d 2d 80 d9 bb e6 52 c9 3d ef 06 3f 3e
       0.031344987 -0.006637594 0.09830265 0.18654989
0001f0 00 7e ca 3b d7 7f 04 bc b4 b8 17 3c 6c bf 16 3e
       0.006179571 -0.00808712 0.009260345 0.14721459
000200 f0 f2 c9 3d 9c ac ca 3e 9e df 4d bd d0 f2 51 3d
       0.0986079 0.39584816 -0.050262086 0.051256955
000210 9a 27 a6 3d cf 21 70 3e 97 1e ca 3e 37 d2 8e bd
       0.08113022 0.23450397 0.39476463 -0.06973689
000220 81 0d c4 bd 06 22 15 be f8 52 8a bd 0f b8 7c 3d
       -0.09572888 -0.1456376 -0.06754106 0.06169897
000230 a1 5b cc bd 7f c1 1a be 0f f3 70 be 4a b7 92 be
       -0.09978414 -0.15112875 -0.2353022 -0.28655463
000240 c0 2f ef be 2c 70 f6 bd 18 5c 26 be fe ff 0d be
       -0.46716118 -0.12033114 -0.16246068 -0.13867185
000250 f5 83 ba be 2e 04 e0 be de 7e 5a bc 2e 5d 4d 3c
       -0.364288 -0.4375319 -0.013335912 0.012534423
000260 57 95 4e 3d f9 97 35 3e 29 9f 07 3e ef 9b 9b bc
       0.05043539 0.17733754 0.13244309 -0.018995253
000270 55 a2 2b bc 6a 9d d7 3d d4 5f 8b 3d ac 7d f1 3d
       -0.010475715 0.10528071 0.06805387 0.11791548
000280 11 d7 4f bd e9 6d d6 bd cd 26 14 be 77 86 11 be
       -0.050742213 -0.104701824 -0.14467926 -0.1421145
000290 9d ac 51 be 6e f7 05 be 05 21 da bd a1 2b 5d be
       -0.20476003 -0.13082668 -0.10650829 -0.21598674
0002a0 e3 30 7a be d7 c2 41 be a1 e3 e5 bd b5 01 3b be
       -0.24432711 -0.18921982 -0.112250574 -0.1826237
0002b0 4b 87 19 be a3 d5 2a be f3 23 86 be 8b c0 26 3d
       -0.14993016 -0.16683058 -0.26199302 0.040710967
0002c0 7e f3 c0 3d 85 f1 cd 3d 1d f5 80 3d 5c 52 f9 3c
       0.094214424 0.10055832 0.06296752 0.03043478
0002d0 cc 78 98 3d 14 8e 8b bc e7 e0 10 bd 78 ce 18 bd
       0.07444915 -0.017035522 -0.035370734 -0.03730628
0002e0 eb ea d6 bd d9 66 86 bd 2a 6f f8 bd ff 57 e6 bc
       -0.10494026 -0.065625854 -0.12130578 -0.028118132
0002f0 2d c7 3c be d7 5f 64 be 7e 14 1c be b2 99 0a be
       -0.18435355 -0.22302185 -0.15242192 -0.13535193
000300 3c b8 4c be 57 42 88 be 7b 68 99 be d6 d0 d4 bd
       -0.19992155 -0.26613113 -0.29962525 -0.10391395
000310 bf 15 89 bd 5b 94 3c bd 94 aa 3f be 2f 84 42 be
       -0.06693601 -0.04603992 -0.18717414 -0.18995737
000320 0f 51 61 3e f3 d6 82 3e 28 02 50 3e bd 56 b2 3e
       0.22003578 0.25554618 0.20313323 0.348318
000330 08 a8 97 3e ba ad 62 bd f2 06 21 3d d7 cf 27 3c
       0.29620385 -0.05534146 0.039313264 0.010242424
000340 2d 59 b8 3d 45 b3 86 3d b1 85 e2 bb d3 53 8e bd
       0.09001384 0.06577162 -0.00691291 -0.06949582
000350 96 99 4a 3b dd 3f ac bd 79 49 50 be 02 0d 81 bd
       0.0030914298 -0.084106185 -0.20340528 -0.06301309
000360 f5 58 7b bc 88 2c 05 be a8 c8 0e be 57 72 67 be
       -0.015341033 -0.13005269 -0.13943732 -0.22602211
000370 99 2c 1e be 23 a6 c6 bd fb 5b a1 bd f1 22 63 3d
       -0.154467 -0.09699657 -0.07878872 0.055453245
000380 6c 8a 54 bd 18 52 43 bd 24 30 79 3d f3 fa 8f 3d
       -0.051889822 -0.047685713 0.060836926 0.07030287
000390 47 1d 16 3d 6e 9d 9c bc c3 9f 03 3e 05 37 97 3d
       0.036649015 -0.019118037 0.12853913 0.07383541
0003a0 20 5e f4 3c 6d a4 b7 3d d0 a5 9b bc 44 49 05 3c
       0.029830039 0.089669086 -0.018999964 0.008135144
0003b0 17 6a a1 3d 7c 7e d2 bc 47 c6 63 bd 7f 23 e8 bd
       0.07881563 -0.025695078 -0.055609014 -0.11334895
0003c0 4b d1 e9 bd fa cc c7 bd 67 4a 17 be 37 13 29 be
       -0.114168726 -0.09755893 -0.14774476 -0.16511236
0003d0 ac 47 26 be a6 4c 8d b9 bf 25 dd 3c a4 ca fb bd
       -0.16238278 -0.00026950723 0.026995538 -0.1229451
0003e0 e6 16 95 bc bf 37 cc ba 2a 3b af bc d1 c2 c8 39
       -0.018199395 -0.0015580578 -0.021390516 0.00038292122
0003f0 b4 53 88 bd a1 ee 60 bc af ef fc bc fe 0c 0e bd
       -0.0665659 -0.013728769 -0.030876009 -0.03468036

conv2.bias f4 [16]
000000 51 ec ad bd 7a cf 4c 3c 30 7d dc bd 4e 21 a5 bd
       -0.084923394 0.012500638 -0.10766065 -0.08062993
000010 05 86 c6 3d 65 52 99 be b5 70 eb bc 5e f5 51 be
       0.09693531 -0.29945675 -0.028740266 -0.20503756
000020 51 9d 0b 3d 2c 94 54 3c 78 da 07 be 53 6f 33 be
       0.034085575 0.01297478 -0.13266933 -0.17522936
000030 e5 3b 67 3c 3d 3a c4 bd 71 01 e5 bd 4b 70 78 be
       0.014113401 -0.095814206 -0.111819156 -0.24261586

bn2.weight f4 [16]
000000 72 e8 a6 3f d8 a2 6e 3f df 3c 5f 3f c9 37 a9 3f
       1.3039687 0.9321723 0.87202257 1.3220149
000010 51 0c 8d 3f 1c 23 a0 3f 92 62 a8 3f a4 c9 8f 3f
       1.1019384 1.2510715 1.3155081 1.1233411
000020 cf b1 95 3f 1a 76 9d 3f 40 0c 96 3f 59 0f 8c 3f
       1.1694888 1.2301667 1.1722488 1.0942184
000030 c8 3d 62 3f 39 61 a1 3f 5f 46 99 3f fb f9 8d 3f
       0.8837552 1.2607795 1.19746 1.1091913

bn2.bias f4 [16]
000000 72 a4 6a be d8 52 2d be 05 2a f2 bd 29 8b a8 be
       -0.22914293 -0.16926134 -0.11824421 -0.3291867
000010 3f bd 8c be 36 5d aa be d4 91 d5 be 85 1b 34 be
       -0.27488133 -0.3327424 -0.4171282 -0.17588623
000020 b6 c0 a7 be d5 be df bd 91 1c 97 be 54 0b 77 be
       -0.32764214 -0.1092507 -0.29513982 -0.24125415
000030 80 a5 48 be d2 3a 92 be ed b5 84 be 08 68 6f be
       -0.19594383 -0.285605 -0.25920048 -0.23379529

bn2.running_mean f4 [16]
000000 12 e9 aa 3e d2 87 3a 3f 8b f0 37 3e a2 a4 b8 3f
       0.33380944 0.72863495 0.17962854 1.4425242
000010 28 20 44 3f 94 b5 a5 3f e5 a9 ce 3f 67 67 7a 3f
       0.76611567 1.2946038 1.6145598 0.9781403
000020 82 9e 05 40 5d 78 24 40 ac f7 98 3f 31 e0 92 3f
       2.0877995 2.5698464 1.1950583 1.1474668
000030 bd d8 d5 3e c8 38 4d 40 e4 91 05 40 04 67 0a 3f
       0.4176692 3.2065907 2.0870295 0.5406344

bn2.running_var f4 [16]
000000 28 04 32 3f b1 0b 64 40 ff 88 83 3e 31 ae 0b 41
       0.6953759 3.5632136 0.25690457 8.730027
000010 d2 4d 20 40 8e bb c5 40 9e f6 18 41 85 92 b2 40
       2.5047498 6.179145 9.560209 5.5803857
000020 20 02 0e 41 ca a0 4d 41 98 de 8e 40 dc 50 b3 40
       8.875519 12.851755 4.464672 5.6036205
000030 8a f0 a1 3f c6 f0 82 41 aa d3 94 40 53 81 ca 3f
       1.2651532 16.367565 4.650838 1.5820717

fc1.weight f4 [120, 256]
000000 24 77 79 bd e6 0c 7b bd 1a 8c 26 bd c7 96 b0 bd
       -0.060904637 -0.061291598 -0.040660955 -0.086225085
000010 3c e5 b5 3c b3 50 1d bd 80 4d a5 bb ab 0a 0c 3d
       0.022204034 -0.03840704 -0.005044639 0.03418986
000020 f4 95 56 bd cf 69 01 3d 1f ee f6 bb e4 b7 b7 bb
       -0.0523891 0.031595048 -0.0075357105 -0.0056066383
000030 70 d5 1d 3c c2 e8 2b 3d 78 bc 8f bc 32 ff ce bd
       0.009633407 0.041970022 -0.017545924 -0.101072684
000040 f1 94 dc bc 88 aa bd 3d b9 30 14 3e e5 38 42 3d
       -0.02692649 0.09261042 0.14471711 0.04741754
000050 c0 bf ac bc da 06 8c bb 06 97 4c 3d c5 40 01 bc
       -0.021087527 -0.0042732777 0.049948715 -0.007888977
000060 7f 90 a1 3c dc 85 65 3d 9a d4 62 3a 36 12 bb bd
       0.019722221 0.05603586 0.0008652896 -0.09134333
000070 98 0b a0 3c 90 4c 69 3d b5 45 e9 3d 6c 2b 91 3d
       0.019536778 0.05695778 0.11390249 0.0708836
000080 bf 07 85 bc 8d 0c 6f bd c1 5c 9a bd 60 63 e8 bc
       -0.016239045 -0.05836158 -0.07537223 -0.028367698
000090 82 ab 13 bd ea 0e ac ba 4c 05 83 bc 25 95 9e bd
       -0.036052234 -0.0013127003 -0.015993737 -0.07743291
0000a0 15 2e 0b 3d 7d 22 6d bc 60 bb 05 3d b2 70 dc bb
       0.033979494 -0.014473555 0.032649398 -0.0067273015
0000b0 70 6f b1 3c 3f ea 9b bb dd d5 14 3c 9c d4 07 3d
       0.021659583 -0.004758149 0.009084192 0.033161744
0000c0 ee 90 0c bc 91 78 4c 3c 7e 6a fc 3c 30 b8 2d bd
       -0.008579476 0.012479917 0.030812498 -0.042411983
0000d0 f6 bf 4c bc 5e 0d e6 3c 7d 67 42 3c 75 14 bf bd
       -0.012496939 0.028082546 0.011865494 -0.09330074
0000e0 98 93 cc 3d 52 c5 8b 3c fe dd ca 3d ac d4 8e bc
       0.09989089 0.017061863 0.09905623 -0.017435394
0000f0 51 ce fb 3b cd 59 c1 3c ac 14 b3 3b 1e 2d 2c bb
       0.007684507 0.02360239 0.0054651108 -0.002627201
000100 1c 8d 2f bd 7f b5 f2 bc 00 4f 8d 3b 63 1f 35 bd
       -0.04285918 -0.02962756 0.004312396 -0.044219386
000110 f4 2a ec bc 73 ea 2a 3d 1d db 1e bd 48 ca ff bc
       -0.028829075 0.041727494 -0.03878318 -0.031224385
000120 7d be 1d 3d a2 21 81 bb 15 74 90 bd 1b a2 ad 3b
       0.038511742 -0.003940777 -0.07053391 0.0052988655
000130 1b 8d bd bd 70 a6 5c bb 91 59 05 bd af fb 12 3d
       -0.09255429 -0.003366854 -0.03255612 0.035884555
000140 ad c0 df ba 6b 59 69 bd 52 71 77 3d 98 90 45 3d
       -0.0017070972 -0.05697004 0.060410805 0.0482336
000150 64 f0 f8 bb 3b 6f b6 bc 2a 00 af 3a c8 4e 39 3d
       -0.007597016 -0.022269836 0.0013351489 0.045241147
000160 c6 8b 88 bd 79 4b e1 bd a7 f4 b7 bc 11 47 c5 bd
       -0.06667285 -0.110007234 -0.022455527 -0.096326955
000170 d7 cb 22 bd 0f de 8d bd 67 c2 e2 bd 44 87 c9 bd
       -0.039745178 -0.0692712 -0.110722356 -0.09840253
000180 a7 09 8c 3b 49 2a ba bd 2f c3 a7 bd b8 58 ca 3c
       0.0042736116 -0.090900965 -0.08191525 0.024700508
000190 10 19 10 3d 42 77 5d bc 91 1b 08 bc 7b 82 4e 3c
       0.03518015 -0.013517203 -0.008307354 0.012604351
0001a0 0a 29 c8 3d f7 ad 8b 3d 5d db 00 3d c6 53 0a 3b
       0.097734526 0.068202905 0.0314592 0.0021107062
0001b0 2f 43 0a 3d 6c be 64 bb 66 70 e3 3c a6 13 97 3d
       0.033755478 -0.003490354 0.027763557 0.073767945
0001c0 c8 e7 16 bc e2 33 8e 3d eb 71 2b bd e4 9f 04 3d
       -0.009210534 0.069434896 -0.041856688 0.032379046
0001d0 91 01 9a bd 2c a3 5f 3b e1 c5 c7 3c 00 2a 65 3c
       -0.0751983 0.0034124358 0.024386348 0.013987064
0001e0 ea 16 9a bd 45 22 21 be 9f 45 0d be 51 8c cb bc
       -0.07523902 -0.15735729 -0.1379609 -0.024847182
0001f0 ec a7 0c be 29 d3 0e bd 17 82 05 be 8e 11 fa bc
       -0.13735932 -0.034869347 -0.13037907 -0.030525949
000200 5e 57 09 3e 36 ec ec bc cc 87 9c ba b2 ba 79 3c
       0.13412234 -0.028921228 -0.0011942326 0.015242266
000210 c1 ab a0 3c d2 60 04 3d ec 0a 97 3d 32 54 34 3d
       0.019613149 0.032318898 0.0737513 0.044025607
000220 86 b6 ce 3c 88 83 ad 3c 1e 2c 7f 3d 1c 2f 1e 3d
       0.025233518 0.021180883 0.062297933 0.038619146
000230 2e c6 7c ba ad 6a a2 bb d8 10 d7 bb b3 c4 d0 bd
       -0.0009642568 -0.0049565644 -0.006563287 -0.101937674
000240 95 ef 30 3d 59 40 d8 bc 41 22 91 bd 69 dd 8e bd
       0.043197233 -0.02639787 -0.070866115 -0.069758244
000250 e5 d7 00 3d 72 a3 ab bc 4d 1d 70 3d c1 7c 17 3c
       0.031455893 -0.02095196 0.058621693 0.009246052
000260 16 67 2b 3d 5b 1f 83 3d 00 2d c7 3c 13 9c ed ba
       0.041846357 0.06402465 0.02431345 -0.0018128179
000270 ab 67 89 3d 93 99 5a 3d 42 ad 86 3b 8a 5a 03 3d
       0.06709226 0.053369116 0.0041100094 0.032068767
000280 12 5f 25 bc 0e 52 8c 3d 6e 3b aa bb a5 f6 81 bd
       -0.010093467 0.06851588 -0.005195073 -0.06345872
000290 af c7 d5 bc be c9 e7 3b ad 96 e8 bd 3d be 0d bd
       -0.026096193 0.00707361 -0.11356864 -0.034605253
0002a0 cb 0f a4 bd 5a 45 87 3c cb 26 d4 3c 3d cf d7 3d
       -0.08010825 0.016512562 0.025897404 0.105375744
0002b0 54 7d d0 bd 86 31 0f bc 60 68 78 bd 8d d5 7b 3c
       -0.101801544 -0.008739835 -0.060646415 0.015370739
0002c0 27 bd 9a 3d 29 c7 a7 3d 0f d2 1e 3d 7d e1 3d 3d
       0.07555609 0.08192284 0.038774546 0.04635762
0002d0 d1 aa 61 3d c6 3c bf 3c 6e ce bb bd 2e be b6 bd
       0.055094544 0.023344409 -0.09170233 -0.08922993
0002e0 00 6e 02 bc 09 19 8e bd 7e 5c 37 bc d4 eb ff bd
       -0.007960796 -0.06938369 -0.011191485 -0.124961525
0002f0 2e 59 0e 3e f4 37 e1 3c 51 04 8e bc e7 82 df 3b
       0.13901207 0.0274925 -0.017336043 0.0068210247
000300 b1 3e e7 bd 71 f9 02 bd e8 d5 ea bd 64 40 11 bd
       -0.11291254 -0.031976167 -0.11466581 -0.0354618
000310 c8 c7 54 bd 0c dc a9 3c 53 39 30 bd b4 e6 68 bd
       -0.05194834 0.02073481 -0.04302342 -0.05686064
000320 8b a4 15 bc 9b cd 67 3c 94 a7 6f 3c 47 ac 81 3d
       -0.009133468 0.014148141 0.014627356 0.063316874
000330 d7 04 16 bd 05 f2 a1 3c e8 df 2c bc 41 71 e2 3d
       -0.03662571 0.019768724 -0.01055143 0.11056758
000340 bb 43 0a bd f3 53 bd bd 96 49 42 bd 93 04 b5 3d
       -0.033756 -0.09244528 -0.04743346 0.08838763
000350 42 fc 7c 3d 88 48 fd 3c 71 f4 78 bd 84 93 62 3d
       0.06176401 0.030918375 -0.060779992 0.055316463
000360 e9 0f 07 3d 55 94 2f 3d 01 78 ce bc bf f1 42 bd
       0.032974157 0.04286607 -0.025203707 -0.04759383
000370 fd 6b cc 3c 09 dc 3e 3d 37 c7 45 3d 7e b4 fc 3c
       0.024953837 0.04659656 0.04828569 0.030847784
000380 75 23 85 3d 0d 2c 61 3d ac 15 41 3d f6 d8 d1 bc
       0.065009035 0.05497365 0.04713981 -0.02561615
000390 4d fb 35 3d 49 62 86 3d 2e 69 86 3c a3 dc 33 bb
       0.044429112 0.06561715 0.016407575 -0.0027444742
0003a0 dd bd 1a bd 7f d8 01 3d a1 33 3d 3c cd 28 96 3d
       -0.037778724 0.031700607 0.011547954 0.07332001
0003b0 06 c1 9f bc fb d8 ce 3b 85 12 99 3d c3 f6 2b 3e
       -0.01950122 0.006312487 0.074742354 0.16793351
0003c0 e9 ab 14 bd 71 40 d4 bd cd b8 aa 3c 5d 4e 06 3d
       -0.03629676 -0.10363854 0.020840073 0.032789577
0003d0 a5 7a b9 3a c1 55 33 3d 65 56 3d bc d8 6b 70 bd
       0.0014150931 0.043782953 -0.011556243 -0.058696598
0003e0 08 b6 04 bd 4e 82 6a 3d 63 4d e6 3c ed a2 0a 3d
       -0.03240016 0.057253174 0.028113073 0.033846784
0003f0 c5 2f 0c 3d 46 3e 2a 3d 59 41 be 3c f1 52 06 bc
       0.034225244 0.041563295 0.02322452 -0.008198486

fc1.bias f4 [120]
000000 a5 7b 82 3c 9b c5 8e 3b 4f 63 50 3d e6 fb a9 bd
       0.015928099 0.0043570525 0.050875958 -0.08299999
000010 4b 75 87 bc 0a 6b ea bc 94 a8 69 3d 87 2e 94 bd
       -0.016535422 -0.028615493 0.057045534 -0.07235437
000020 8d e1 0f bd 42 ff a6 ba 7d 38 a6 3c 84 20 b1 bc
       -0.03512721 -0.0012740868 0.020290608 -0.02162195
000030 c7 db 73 bd 72 54 ba 3c 03 9e 21 3d 40 2a 6b bd
       -0.059535768 0.022745345 0.039457332 -0.05741334
000040 d3 6f 97 bd 94 2b c3 3b c5 24 22 3d f8 ae 2e 3d
       -0.07394376 0.0059561227 0.039585847 0.042647332
000050 77 6d 86 bd 01 96 38 bd d3 a5 4e 3d 05 ca 21 bd
       -0.065638475 -0.04506493 0.05045111 -0.0394993
000060 41 8e 34 3d 2f b9 df bc df f0 ac bd ae 5a 19 bd
       0.044080976 -0.027309982 -0.0844438 -0.037439995
000070 c7 57 0b 3c 97 97 d8 bb ca f4 83 bd 77 e7 8c bc
       0.0085048145 -0.006609868 -0.06443174 -0.017200215
000080 77 df 0e bd 2d e6 0d bd cb 80 06 3d 38 d5 5a 3d
       -0.03488108 -0.03464334 0.03283767 0.053425997
000090 fd 92 39 3d 75 ab e7 3b da 11 87 bd 5f 86 1f 3d
       0.045306195 0.00707 -0.06595202 0.038946506
0000a0 b5 73 09 3d d8 ab 64 3c f0 95 bc bc d1 4b 17 3d
       0.033557612 0.013956986 -0.023020715 0.03693754
0000b0 06 d5 af 3c cd a9 a1 bd 8b 92 0e 3c 26 6e 14 bd
       0.021463882 -0.07893715 0.008701931 -0.03623786
0000c0 9b 96 16 3c aa 81 eb bb 03 1e 3b bd 0f 5d 34 bd
       0.009191181 -0.007187088 -0.04568292 -0.04403406
0000d0 9b 76 55 bc bc 15 8c bc 77 10 61 bc fa a7 c5 bb
       -0.013028766 -0.017100208 -0.013736836 -0.0060319873
0000e0 c5 ed ad bd ea 7f 79 bd 2d 32 83 3c ef d0 3c bd
       -0.084926166 -0.060913004 0.016015137 -0.046097692
0000f0 8d 88 5a bd 8e 70 8a bd 87 b4 0e bd 81 68 c3 3c
       -0.05335288 -0.06759749 -0.034840133 0.023853542
000100 f0 6b 0a bd d8 dc 3a 3c b2 c1 66 3d 50 7f 1c bd
       -0.033794343 0.011405192 0.056337066 -0.038207352
000110 6b b3 6f bd c8 c2 53 bd b6 6e 2a 3c 5e 28 aa 3c
       -0.058520716 -0.05169943 0.010402372 0.020771202
000120 3b 3b ab 3b ad be 47 bd ba 27 a0 bb de b7 08 3d
       0.0052255667 -0.048765827 -0.0048875483 0.033378474
000130 e4 bd e5 bc 99 a0 3d bc 18 9e 4a bd 80 4e 38 bd
       -0.028044648 -0.011573934 -0.049467176 -0.04499674
000140 78 8a 09 3b 0f 1e 8e bd e7 45 f6 bb e4 c9 f1 bd
       0.0020987075 -0.06939327 -0.007515657 -0.11806086
000150 03 4e a4 bc bd b2 55 bc ff 21 57 3d ea 9d 22 3d
       -0.02005673 -0.013043103 0.052522656 0.03970138
000160 cb 18 03 bb 6c 69 f2 bb 08 9e 48 3c 56 b7 9a 3c
       -0.0020003791 -0.007397821 0.012244709 0.01888625
000170 58 40 ba bd e3 57 05 3d fb 72 de bd f1 86 d5 bc
       -0.09094304 0.03255452 -0.108617745 -0.026065322
000180 40 66 9d 3c 8d 94 a5 bd c7 07 9e bc 1b 34 87 3c
       0.019213796 -0.080849744 -0.019290818 0.016504338
000190 c1 e0 2f bd a1 89 80 3c 90 a4 64 bd f5 1c 88 3c
       -0.04293895 0.015690627 -0.055821 0.01661537
0001a0 75 10 ab 3c 98 bd 3f 3d c8 19 31 3d ed 2a 19 3d
       0.02088187 0.04681167 0.043237478 0.037394453
0001b0 f0 af 53 bd 3c 2f 90 bc 2b b7 29 bd d2 0c 95 bd
       -0.05168146 -0.017600648 -0.04143445 -0.07277836
0001c0 6e e5 dc bb af 44 5c bc bf 8f a1 bd ad 81 d0 bc
       -0.0067412173 -0.01344411 -0.078887455 -0.02545246
0001d0 da 57 18 3c fe 7c 00 bd 9c 73 40 bc 4d 08 ce 3c
       0.009298289 -0.0313692 -0.011746313 0.025150442

fc2.weight f4 [84, 120]
000000 0a d7 49 3d 92 a4 9a 3d 6b 1d 89 bd 71 b3 c0 bd
       0.049277343 0.075509205 -0.06695064 -0.09409226
000010 e5 81 7f bd f6 9b 72 bd 14 40 e5 bd a2 2c b3 3d
       -0.062379736 -0.059230767 -0.111938626 0.087487474
000020 0c f9 49 3d 70 f8 e5 3c e8 85 a1 bc 1d 75 a1 3b
       0.049309775 0.028072566 -0.019717172 0.004927291
000030 fb 4d 4b 3c bb 63 44 bd ff 7d 81 3c 8f 72 11 3d
       0.012408729 -0.047946673 0.01580715 0.035509642
000040 dc de fe 3c 0e 6b 97 3d 1e bc b1 3d 35 f6 9b ba
       0.031112127 0.07393466 0.08678459 -0.0011898937
000050 35 25 75 3d e7 45 de 3c 33 39 96 bd ef 90 2f bd
       0.059849937 0.027132941 -0.07335129 -0.04286283
000060 f5 21 b3 3c b5 e3 f4 3c cc 6f ae 3c eb 59 0e 3d
       0.021866778 0.029893735 0.021293543 0.03475372
000070 64 24 d6 bd 34 4b b8 bc 51 dc b9 bd d6 0d 2e 3c
       -0.1045616 -0.022496797 -0.09075225 0.010623416
000080 c4 c2 34 3d 2f 1e 94 3d 1c bd d9 bd 41 82 03 bd
       0.044131055 0.072323196 -0.10631773 -0.03210664
000090 fa ac 23 bd fb cf 89 3c fa 13 87 bb 1b 4b 13 3d
       -0.039959885 0.016822806 -0.0041222544 0.035960298
0000a0 6b a1 8d bd eb 51 94 bd ce 2c 5f bd 6e de 98 bd
       -0.06915554 -0.07242187 -0.05448609 -0.074643
0000b0 00 9f 5a bd a6 62 8e 3d 78 93 01 3c cc c5 49 3d
       -0.05337429 0.069524094 0.007908694 0.0492609
0000c0 06 9e c5 bc a5 a2 cc 3d 34 cf 7f bc 6a c0 8b 3c
       -0.024123203 0.099919595 -0.015613366 0.017059524
0000d0 a4 0d 79 bd f1 be 78 bd 07 2b af 3d 2e b9 c2 3d
       -0.060804024 -0.06072897 0.08553129 0.095079765
0000e0 87 00 00 3d b7 70 1b bd 84 fe 97 3d 90 2e 92 bd
       0.031250503 -0.03794929 0.07421592 -0.07137787
0000f0 7e 40 50 bd 4e a7 94 3d 0f ed 93 bd 96 50 e8 b9
       -0.050842755 0.07258473 -0.0722295 -0.0004431053
000100 6a ea 91 bd 3d eb 35 bc 63 ba 51 39 52 4a 1c bd
       -0.07124789 -0.011103448 0.00020001228 -0.038156815
000110 da d1 aa 3c 09 09 37 bc 15 a4 89 3b a4 22 01 bd
       0.020852018 -0.011171588 0.0042004683 -0.031527176
000120 ba 7d 70 3d 67 c6 3a 3d 14 59 fb 38 45 0c de 3a
       0.058713652 0.045599367 0.00011985205 0.0016940912
000130 3f 60 2a bd b6 e0 23 3d 9a 41 91 bd 74 21 b8 bc
       -0.041595694 0.040009223 -0.07092591 -0.02247689
000140 86 53 f3 3c c4 e3 f7 bc 8f c3 31 bd f6 49 98 3d
       0.029702913 -0.030259974 -0.04339939 0.07435982
000150 54 36 c6 bc b6 05 81 3d 39 1f a9 bc 5f 37 de 3c
       -0.024195828 0.062999174 -0.020644771 0.027126012
000160 6b 3e 36 bd 70 f9 8c bd 9d 3e 6d 3d 1c c5 c7 bd
       -0.04449312 -0.06883514 0.05792104 -0.097543925
000170 85 55 88 bd cb 53 9f bc da 0e 9c 3b 9e 68 0a 3d
       -0.066569366 -0.019449135 0.0047625126 0.033791177
000180 bb e6 c5 3c ac 62 03 bd d1 02 c9 bd 04 47 97 bd
       0.024157872 -0.032076523 -0.0981499 -0.07386592
000190 df b7 b9 bb 8b 8f a2 3d 71 b6 7d bd 2b ad 77 3d
       -0.005667671 0.07937535 -0.061941568 0.06046788
0001a0 14 2b a0 3c 91 77 ba bc b0 10 9c 3d e1 3e 57 bc
       0.019551791 -0.022762092 0.076203704 -0.01313755
0001b0 c3 77 a2 3a 07 5d dc 3c 97 e9 be 3b 42 e9 5c 3d
       0.0012395311 0.026899828 0.005826186 0.05393339
0001c0 8c 9a df bc 68 f9 14 3d ee cb 46 bd 7a f4 d4 3d
       -0.027295373 0.036370665 -0.048534326 0.10398193
0001d0 92 3d 06 bd ca ce b0 bd ca 82 9b 3d 28 ee d4 bd
       -0.03277356 -0.08633192 0.075933054 -0.10396987
0001e0 b0 ad b5 bd f4 cb fa bc b8 61 e7 3d 53 2f 7e bd
       -0.08871019 -0.03061483 0.11297935 -0.06205685
0001f0 94 ff db 3c 29 08 8b bd bf 34 69 bd 26 83 80 bd
       0.026855268 -0.06788666 -0.05693507 -0.062750146
000200 71 c4 b8 bc 78 98 43 bb 5d 60 ab bc c9 59 3d bd
       -0.022554608 -0.0029845517 -0.020919973 -0.046228204
000210 0d ba 9b 3c c0 b7 c3 3c c0 59 3d 3a 99 a2 d9 bc
       0.019009614 0.02389133 0.00072231516 -0.02656679
000220 77 b4 2b 3d 88 57 3d bd b8 1d 19 bc 11 09 b5 bd
       0.04192015 -0.046226054 -0.009345464 -0.0883962
000230 18 bc b1 3c d1 f6 24 3d d8 df b2 bd 4a 44 bc 3d
       0.021696135 0.040274445 -0.08734101 0.091927126
000240 c4 14 09 bd c0 6d 0a bd 7f fd 30 3d f5 d8 ff bc
       -0.03346707 -0.033796072 0.043210503 -0.031231383
000250 bf f1 84 bd 19 8f 0b bd 3f 0a ff bb c5 18 9e bd
       -0.06491422 -0.034072015 -0.007783204 -0.07719568
000260 0a 94 9f 3c 88 7c 25 bd f9 e3 ab bd dc b0 4b 3c
       0.01947977 -0.040401965 -0.08393092 0.012432303
000270 40 61 9a bc 3f 5f ae bd 11 87 c3 bc 31 cf f8 bc
       -0.0188452 -0.085142605 -0.023868116 -0.030372234
000280 3c 03 87 3d c0 d6 2c bd e9 01 b4 3d 08 a0 24 bc
       0.06592414 -0.04219699 0.08789427 -0.01004792
000290 5f 4d 16 3d c5 12 48 3d 34 4b 38 3c 97 d8 05 3d
       0.03669488 0.048846025 0.011248399 0.03267726
0002a0 d9 75 3d bd f2 97 b5 bc 79 fe 8a bd 33 92 63 bd
       -0.046254966 -0.02216718 -0.06786818 -0.05555935
0002b0 fa 0c 3e bd a2 9b 98 bd 27 b6 37 3c 5a 62 b9 bc
       -0.046399094 -0.074515596 0.011212862 -0.022629905
0002c0 ef f8 d8 bc 35 e4 06 3d bf 55 b5 3d ce 9f 5a bd
       -0.026485888 0.03293248 0.088542454 -0.053375058
0002d0 a7 4c 67 3d a1 ba 90 39 0e 46 71 3c 7e 5a b8 bd
       0.056469586 0.0002760487 0.014726175 -0.09001635
0002e0 f1 c0 f4 bc 65 10 3b bd 43 76 a2 bd fe ce 40 bd
       -0.029877158 -0.045669932 -0.07932713 -0.047072403
0002f0 c3 b7 41 bd 53 d6 d3 bc d1 89 93 bd c9 f7 90 bc
       -0.04729439 -0.025859034 -0.07204021 -0.017696278
000300 73 44 81 bc 70 b9 ac bc 52 73 b5 bc e5 f7 c7 bc
       -0.01577971 -0.021084517 -0.022149716 -0.024410198
000310 0b ea 4d 3d e5 ee b0 bc 7a 56 9f 3d 03 c5 51 bd
       0.05027203 -0.021598289 0.07780166 -0.051213276
000320 18 46 a5 bd 73 bd 8f bd 34 9e ba ba 4c 1e 75 3d
       -0.0807001 -0.070185564 -0.0014237822 0.059843346
000330 65 98 2f 3c 63 8a 3c bd 11 a9 03 3d b1 ae fd 3c
       0.010717486 -0.046030413 0.032143656 0.030967088
000340 70 41 1a 3d 98 00 86 bb 23 04 04 bc 72 dd 9b bd
       0.037660062 -0.0040894262 -0.008057627 -0.07610597
000350 dc 40 cc bc 0c 88 2d bd 13 0c 50 3a 11 8e 16 3c
       -0.024933271 -0.042366073 0.00079363695 0.009189145
000360 1d d6 8b bd 35 3f 4a 3d b4 56 43 3c db f8 67 3d
       -0.06827948 0.049376685 0.011922527 0.05663381
000370 f5 08 61 bb f1 9d 70 bd c9 bd 99 bd 6a 6c 3f bd
       -0.0034337614 -0.058744375 -0.07506902 -0.04673425
000380 c1 d2 93 bd 4e 2b 28 bd 17 f1 86 3d 6d 66 b0 3d
       -0.072179325 -0.041056924 0.06588953 0.08613286
000390 e4 86 4d 3d d6 7d d1 3d 23 6c 8c bd 4a 3b 5a 3b
       0.05017747 0.102290794 -0.06856563 0.00332995
0003a0 1d 88 7d 3d e2 44 5e bd 8d a7 bb bd a4 05 3f 3b
       0.061897386 -0.05426491 -0.09162817 0.002914765
0003b0 86 81 a6 bc c8 90 63 bb 9a 6c 80 3d 14 8a 8d 3d
       -0.020325433 -0.0034723748 0.06270714 0.06911102
0003c0 07 76 9a bd 31 25 03 be 9e 2f a8 3c 11 12 08 be
       -0.07542043 -0.12807156 0.020530518 -0.13288142
0003d0 5c 08 18 be dd 6a 2c 3d be 49 cd bd 59 54 2e 3d
       -0.14846939 0.0420941 -0.10023831 0.04256091
0003e0 e2 d6 30 bd 08 55 05 be bf 31 dd bd 6f 8f ec 3b
       -0.04317368 -0.13020718 -0.10800504 0.007219247
0003f0 50 ed 95 bd f5 7b 27 bd 92 02 40 bd 38 1b db 3d
       -0.073206544 -0.0408897 -0.04687745 0.10698551

fc2.bias f4 [84]
000000 09 3f ba bd 80 fc 52 3d 03 72 55 bc ec 3f 0c bd
       -0.09094054 0.051510334 -0.013027671 -0.03424065
000010 af 59 9d bd b3 5b 70 3d e8 bd 75 bb e9 8a 41 3c
       -0.076831214 0.0586812 -0.0037497226 0.011812904
000020 f8 80 f5 bd 2c d0 42 3d bc 53 0c 3e bc 9a a8 bc
       -0.119874895 0.04756181 0.13703817 -0.020581596
000030 db f5 d1 3c ae a1 11 bd 52 ee a4 3d 5b 80 7e bd
       0.025629928 -0.03555458 0.080532685 -0.062134128
000040 2e 08 86 3d 82 6f 7f b8 10 7c 91 3d 06 2d 34 bd
       0.06544529 -6.0900587e-05 0.07103741 -0.04398825
000050 94 50 0c 3e ab 5e 57 bd bb 9d ee 3c 33 2c 18 bd
       0.13702613 -0.052580517 0.029127946 -0.037151527
000060 62 e0 a2 bd a4 62 83 bd e0 11 a9 3c 57 f5 ee 3d
       -0.07952954 -0.064152986 0.020638406 0.116678886
000070 74 2a 87 bd de b6 fc 3b 77 bc 39 3d c7 f7 0a bd
       -0.06599894 0.007712229 0.04534575 -0.033927705
000080 61 c3 ad bd 29 28 d4 3a f5 81 70 bd c6 08 ce bb
       -0.08484531 0.0016186285 -0.058717687 -0.006287667
000090 22 46 e6 3d 8a 1f 43 bc 7c ff cc bc 4d eb 16 3d
       0.112438455 -0.011909375 -0.025024168 0.036845494
0000a0 19 70 39 bd 35 b8 02 3e 9f e2 98 bd aa 47 b7 3a
       -0.04527292 0.12765582 -0.074650995 0.001398315
0000b0 e8 1c 82 bd e7 8f 7a 3d 88 21 56 3d ff b9 9a 3c
       -0.0635317 0.061172392 0.05227807 0.018887518
0000c0 0b 42 42 bd 3b 8e 16 bd 3d e8 b2 3d c8 f9 e7 bb
       -0.047426265 -0.036756735 0.08735702 -0.007079337
0000d0 62 55 b7 3b dd e3 ef 39 9b 9a d8 3d 10 7b 53 bd
       0.005594895 0.00045755404 0.10576364 -0.051631033
0000e0 3c 61 46 3d 94 33 08 bc 39 43 62 3d bb 74 e4 3d
       0.048432574 -0.008313078 0.05523989 0.11155077
0000f0 fc fe 0b bd 3f d3 a8 3d 50 a6 59 bd 02 9e 80 bd
       -0.03417872 0.08243417 -0.053137124 -0.062801376
000100 da a4 a0 3d af a7 77 3d 2f dc 93 3d 65 89 aa bb
       0.07843943 0.06046265 0.07219731 -0.005204367
000110 24 7c 88 bd 23 ff 1b bd 54 d8 8a 3d 49 50 b1 3d
       -0.06664303 -0.038085114 0.067795426 0.08657891
000120 e6 e5 12 3d 2d 38 49 bd df 48 08 3d 65 29 09 bd
       0.03586378 -0.04912584 0.03327262 -0.033486743
000130 5f 86 4f bd d8 60 94 bd f6 2e 6e 3d 95 9f 97 bd
       -0.050665256 -0.07245034 0.058150254 -0.07403485
000140 bc 23 db bd cc dd 2e bd af 71 94 3c c3 0a fb bc
       -0.10700175 -0.04269199 0.018120615 -0.03064478

fc3.weight f4 [10, 84]
000000 1b 92 11 3c e6 86 d3 3d 62 b5 10 be 78 1f be bc
       0.008884932 0.10328464 -0.14131692 -0.023208365
000010 ff a0 35 3d a5 8c 42 3d 56 5c 62 be 2a 88 89 be
       0.04434299 0.04749741 -0.22105536 -0.26861697
000020 be 9b 36 3e 81 2c 19 3e be 3d cd bd c7 c2 f7 bd
       0.17832848 0.14958383 -0.10021542 -0.12097698
000030 fc 8a db 3d ca 9b 4f be b5 b7 6e be 62 4c 56 3e
       0.107198685 -0.20274273 -0.23312266 0.20927575
000040 28 6a be bc ec 85 44 be 86 42 3a 3e 50 94 81 bd
       -0.023243979 -0.19191712 0.18189439 -0.063271165
000050 0f 26 43 be 6e a2 66 ba a2 cd 2d be d0 52 cb 3d
       -0.19057487 -0.00087980076 -0.16972974 0.099279046
000060 85 bf a1 bc 39 89 1f be 1e 6c 5c 3e 98 e2 54 3d
       -0.019744644 -0.1557969 0.21525618 0.05197391
000070 07 2f 44 3e ca ed ae 3c d0 67 d5 bd b7 61 2c 3e
       0.19158565 0.021353621 -0.10420191 0.1683415
000080 0e f1 db 3d f7 41 94 3d 6b 2f 94 be 0b 0e 6d 3e
       0.10739337 0.07239144 -0.28942427 0.23149888
000090 cd 31 74 3d 0b b8 0a 3e f1 11 f7 be de 9e 1d 3e
       0.059617806 0.1354677 -0.48255876 0.15392634
0000a0 c4 35 7d bd 54 ec ad be 9c 4e 1c be c8 ac 3e 3c
       -0.061818853 -0.33969367 -0.15264362 0.011637874
0000b0 ef 6a 1a 3e 8d d9 23 be be 1e e8 bd ba c9 00 bd
       0.15079854 -0.16000958 -0.113339886 -0.03144238
0000c0 37 e6 95 3e 7d ac b7 bd 66 0c 5a 3e 86 81 9b 3e
       0.29277202 -0.089684464 0.21293792 0.30372256
0000d0 d9 2c 57 be 23 bf 1d be 92 d6 12 be 46 98 c3 3d
       -0.21013202 -0.15404944 -0.14339665 0.09550528
0000e0 35 b0 43 be d3 90 90 be 26 c6 09 be 2c 8d d8 3d
       -0.19110186 -0.28235492 -0.13454494 0.105738014
0000f0 87 ba 5a 3b e6 0c 8d 3d dc 43 76 bd 7c ee 6a 3e
       0.003337534 0.06887226 -0.06012331 0.22942537
000100 04 9d 85 be c4 55 b1 3d 84 08 a9 bd 17 5c 1d 3d
       -0.26096356 0.086589366 -0.08253577 0.0384179
000110 59 5c 8f 3d dc 11 af 3e 6d bf 14 3e a4 2b 6d bd
       0.07000036 0.34193313 0.14526148 -0.057902947
000120 c1 d6 96 3e 5c 06 50 be 69 f8 b2 3e 43 97 80 bd
       0.2946072 -0.20314926 0.34955147 -0.06278851
000130 18 7e 65 be bd 6e 04 3e aa 99 ba be 95 b5 79 bd
       -0.22411382 0.12932868 -0.3644536 -0.060964186
000140 d5 29 01 3e 78 ae 05 3e e5 0b 15 3e af 9d 09 be
       0.12613614 0.13054836 0.14555319 -0.13439058
000150 10 9b f7 bd 7c ca 4f 3c d7 32 e0 bd 1b 72 f5 bc
       -0.12090123 0.012682553 -0.10947197 -0.029961636
000160 83 87 83 3d 3f e5 b4 bc 1f ef c4 bd e8 ba 21 3c
       0.06422331 -0.02208197 -0.09615921 0.009871222
000170 97 99 cc bd 3d a9 e1 3c 6f b5 80 3d 4f 53 5c 3d
       -0.099902324 0.02754652 0.06284606 0.053790387
000180 a8 59 85 3c d8 b0 ce 3c 5d 88 53 be de 18 40 be
       0.016278103 0.02523081 -0.20657487 -0.18759486
000190 a2 5a 83 3e b3 90 2c be 01 4d a0 3d 87 f4 a4 bc
       0.25655085 -0.16852073 0.07827187 -0.020136131
0001a0 b5 de 8f bd e9 9e c2 3d db 2c 0c bc ea 6b 4a 3c
       -0.070249 0.09502966 -0.008555616 0.01235483
0001b0 d8 b7 dc be 72 8c 72 be 16 a1 0c be a7 b0 9d 3e
       -0.43109012 -0.23686388 -0.13733324 0.30798838
0001c0 50 df 89 bd 2c c5 86 be 7d 0a 03 bc 1e 8e 1c be
       -0.067320466 -0.26322305 -0.007998106 -0.15288588
0001d0 b9 27 31 be b5 ec cc 3b f9 c7 39 bd 0f 10 c4 bd
       -0.17300309 0.0062538036 -0.045356724 -0.095733754
0001e0 81 26 8c 3e d6 9a 39 bd b2 f4 db bd dd 0e bf bc
       0.27373126 -0.04531368 -0.10740031 -0.023322517
0001f0 3a b0 f9 3b aa 85 ba 3d 1b 75 95 bc fc 34 74 bd
       0.007619885 0.09107526 -0.018244317 -0.059620842
000200 39 6d ff be 86 b6 bf be e6 23 9b be 69 d3 d6 bd
       -0.49888018 -0.37443942 -0.30300826 -0.10489542
000210 3a 5f 52 3d d2 41 ad 3e 3e be bb bb 6b 00 b9 3d
       0.051360346 0.3383928 -0.0057294657 0.09033283
000220 3a f7 97 3e 64 36 c8 3b 30 40 b2 3e ba 71 bb 3c
       0.29680806 0.0061099995 0.34814596 0.022881377
000230 79 2b 14 3f 6b 83 7f 3e 3c cf 26 3b ee 6f c6 3c
       0.57878834 0.24952476 0.002545311 0.024223294
000240 f6 a3 89 be 9f 86 4e be cb c3 33 3c 77 f6 e3 bd
       -0.26882905 -0.20168541 0.010971974 -0.11130994
000250 02 ae 4e bd 9d 5b 9d 3e 55 03 38 3e f3 a4 12 3e
       -0.050458916 0.30733958 0.17970021 0.14320736
000260 73 46 b9 bd ca b6 3d 3e d4 f5 18 be c9 75 85 bd
       -0.0904664 0.1852676 -0.14937526 -0.06516606
000270 8a 4c 90 be 86 86 17 3d 42 23 87 bc 86 b2 dd be
       -0.28183395 0.036993526 -0.016496304 -0.43300265
000280 ae fc 39 3e 7c 23 be bc 55 24 01 3d a3 98 de bd
       0.18162796 -0.02321028 0.03152879 -0.10868957
000290 b2 a1 76 bd 48 82 40 3e 4c 71 c0 bd de db d5 3c
       -0.0602128 0.18799698 -0.0939661 0.026105817
0002a0 61 0a 6b bd a1 0c 9c bb ac e3 18 3e 60 e2 37 3c
       -0.057382945 -0.0047622477 0.149306 0.011223406
0002b0 6c c8 34 bd a4 3a ca bd ee d4 05 bc 64 d4 41 be
       -0.04413645 -0.09874466 -0.008168442 -0.18928677
0002c0 b0 13 39 3e 7d 25 10 bd ca 46 a9 3e 63 05 ca 3d
       0.18073916 -0.035192 0.3306182 0.09864309
0002d0 30 56 7e 3e 1f 9c 88 3d ea 5e d0 3d 5e 85 14 be
       0.24837565 0.06670403 0.101743534 -0.14504
0002e0 be 12 81 be ff 2a 90 3d 2b cd 26 be 15 88 5c be
       -0.25209612 0.07039451 -0.16289203 -0.21536286
0002f0 c6 d8 0d bd 6b 6f 42 bc e3 fd 46 bc b4 33 c7 bd
       -0.03463056 -0.011867384 -0.012145492 -0.097266585
000300 66 52 79 3e 68 2b b5 3e 53 77 1b be 5c a7 bb 3d
       0.24347839 0.3538468 -0.15182237 0.09162781
000310 86 0c 3f 3e 04 29 19 be 1f 22 df 3b b3 50 bb bc
       0.18657121 -0.14957052 0.0068094875 -0.022865629
000320 11 17 2f bc de 4e 87 bd 81 76 a6 3e cb a9 92 3e
       -0.010686652 -0.066068396 0.32512286 0.28645167
000330 be 64 4b be 9b 37 2e 3b 3b 94 d6 bd be 1f 44 bd
       -0.19862649 0.0026583436 -0.104774915 -0.047881834
000340 62 dd c7 ba cc 04 5d be e5 8f 78 be b2 72 b6 bd
       -0.0015248472 -0.21583861 -0.24273641 -0.08908595
000350 9d 4d 1b be 71 e4 f5 bd 6c 9f 21 3d 51 57 ae bc
       -0.15166326 -0.12006462 0.039458677 -0.02128187
000360 0e 9c 53 bd e2 65 81 bd af a0 9b 3e 25 2d 01 bb
       -0.051662497 -0.06318261 0.3039603 -0.0019710746
000370 79 24 78 3d f3 6a 9b bd 91 57 f6 bc 8f 99 94 be
       0.060581658 -0.07588758 -0.030071052 -0.29023406
000380 3a a6 62 bd 2a 88 8f bc 99 0a 97 be 33 ba 65 3e
       -0.055334307 -0.017520983 -0.29500273 0.2243431
000390 54 78 0b 3e de 0c 73 bd 0f dc b3 3d 88 60 eb 3d
       0.1362012 -0.059338443 0.08782207 0.11493021
0003a0 f4 c6 71 3e 6d 03 5f 3e f1 fe 44 3e 46 45 9d bd
       0.23611051 0.2177865 0.19237877 -0.076792285
0003b0 56 e1 fd bd ce 09 ee 3d 70 24 66 bd 4e bd c4 bd
       -0.12396495 0.11622964 -0.056187093 -0.096064195
0003c0 fc 85 33 be a2 16 a2 3e de 42 bf bc cc d7 ba 3d
       -0.1753158 0.31657892 -0.023347314 0.09123191
0003d0 14 d8 23 3e ae ca 5b 3e 32 e9 76 bd 77 d9 b3 3c
       0.16000396 0.21464035 -0.060280986 0.021954281
0003e0 d9 6f 17 be 0b 0b 67 3e c7 bd 32 be 8c cb e1 bd
       -0.1478876 0.22562806 -0.17455207 -0.110251516
0003f0 6d 1a e9 bc c4 1c 1f bc 68 ab d7 bd 21 2a d7 bd
       -0.028454984 -0.009711448 -0.1053074 -0.10506082

fc3.bias f4 [10]
000000 41 1c 6d 3d 68 8b 07 3e 20 42 e4 bd 0a de 00 3e
       0.057888273 0.13236773 -0.11145425 0.12584701
000010 15 0f 94 bd fc 69 2a bd 53 92 58 be 1c 35 10 be
       -0.07229439 -0.04160498 -0.21149568 -0.1408276
000020 67 92 ff 3d 96 2d 5f bb
       0.12479096 -0.003405427
