augumentation/CIFARtrainset_cifar10 + dataset = torchvision.datasets.cifar10_net.pth (torch, 189495 bytes, 18 tensors)

conv1.weight f4 [6, 3, 9, 9]
-0.030373877 -0.10949585 -0.24417853 -0.17274942 -0.1798472 -0.11623357 0.012500423 -0.06947204
-0.14997739 0.08455226 -0.037664846 -0.21878739 -0.17183647 -0.23679057 -0.18324624 -0.116641715
0.07923691 0.024028182 0.09223405 0.0038872561 0.010194372 -0.08868711 -0.17968461 -0.17007764
-0.17568551 0.07788672 0.06323503 0.13449168 0.15707234 0.23813657 0.18071899 0.076633796
-0.0025879662 -0.104553744 0.13524273 0.07913921 0.09089564 0.14138503 0.3381492 0.40203333
0.3649549 0.22124141 0.019441511 0.10564421 0.047703866 -0.051138204 0.11131103 0.30643472
0.33227387 0.27883932 0.18910776 -0.110315226 -0.15273781 -0.03007553 -0.13040857 -0.059744153
0.09151373 0.19139577 0.19965443 0.18611108 -0.20218973 -0.15701966 0.0872379 -0.059916113
-0.06336017 0.115028456 0.043079957 0.120707616 -0.12109354 -0.16427453 0.05882084 0.20308375
0.17602126 0.04228136 -0.05263553 -0.08290713 -0.11195736 -0.011475744 -0.01124998 0.21989681
0.10408401 0.081081614 0.0742465 0.13374874 0.15060894 0.12909888 0.23577681 0.17324904
0.119035296 0.07640604 0.10444765 0.060174353 0.14365625 0.12408034 0.06293959 -0.0025916041
-0.008046127 0.1908514 0.26491427 0.1942436 0.22756906 0.32103077 0.2516834 0.06817006
-0.17986977 -0.03869692 0.09814027 0.24379668 0.14935741 0.26965293 0.43299416 0.4512283
0.1971605 -0.07301673 -0.11084938 0.050288513 0.19515207 0.06096842 0.2521319 0.4698046
0.5068404 0.3732419 0.16201605 -0.1652857 0.056892548 -0.032180823 -0.102903284 0.20008188
0.3240816 0.38666537 0.22911681 0.095020354 -0.17322885 -0.26346746 -0.014718429 -0.074928656
-0.11673259 0.16965725 0.17125463 0.080733076 0.092778295 -0.21117426 -0.15989448 0.103907324
-0.0069762236 -0.0039673205 0.117995106 0.15420964 0.081476055 -0.06698312 -0.16352497 0.16153459
0.35724616 0.24364378 0.1126642 0.17334616 0.10770619 0.080320545 0.013464612 0.03462733
0.4390442 0.3290549 -0.22218955 -0.22883657 -0.13822466 -0.026127625 -0.045437973 -0.070283234
-0.12182475 -0.00027975504 -0.029911872 -0.11266858 -0.12552361 -0.013349855 0.010344205 -0.17544249
-0.22230609 -0.18740238 -0.03936182 0.034462348 -0.07145579 -0.055254783 0.098605186 0.055862375
-0.15779632 -0.33802584 -0.35143086 -0.16158338 0.020885209 -0.06378252 0.106941134 0.2898622
0.22869164 0.021043072 -0.28829536 -0.421953 -0.16096246 -0.09043251 -0.15286839 -0.059251647
0.20682018 0.28070253 0.08096523 -0.19502988 -0.3931395 -0.28103158 -0.31062087 -0.21718916
-0.003915977 0.07418334 0.08464661 0.027174694 -0.068191335 -0.34456548 -0.49143073 -0.2598125
-0.33670312 -0.23056985 -0.09709074 -0.03078373 -0.13212992 -0.1532393 -0.33182043 -0.36134785
-0.2278991 -0.23026864 -0.2197465 -0.14731218 -0.029216599 -0.13911082 -0.22816007 -0.3617316
-0.1578974 -0.06154265 -0.057959653 -0.17575029 -0.10349638 -0.1107284 -0.19841643 -0.23471408
-0.24494033 0.066275336 -0.08468013 0.027971592 -0.06474988 -0.013977573 -0.05237386 -0.0032774734
-0.0315987 -0.012678832 0.035608806 -0.0021525875 -0.028148424 0.003272618 0.05131392 0.04904364
00000000: a3d2 f8bc 5c3f e0bd f009 7abe 39e5 30be
00000010: dd29 38be de0b eebd 93ce 4c3c 5b47 8ebd
00000020: ac93 19be bc29 ad3d 7446 1abd cd09 60be
00000030: e6f5 2fbe 3a79 72be e7a4 3bbe dae1 eebd
00000040: f646 a23d c0d6 c43c 35e5 bc3d 56c1 7e3b
00000050: 4c06 273c 96a1 b5bd 3eff 37be d528 2ebe
00000060: e7e6 33be 1383 9f3d 5e81 813d 30b8 093e
00000070: 92d7 203e 13da 733e 660e 393e 2ef2 9c3d
00000080: de9a 29bb 4620 d6bd 127d 0a3e bd13 a23d
00000090: 7e27 ba3d 3dc7 103e e421 ad3e 50d7 cd3e
000000a0: 5edb ba3e 1c8d 623e ce43 9f3c fe5b d83d
000000b0: 2165 433d 4b76 51bd 0af7 e33d 03e5 9c3e
000000c0: cd1f aa3e 07c4 8e3e 77a5 413e f3ec e1bd
000000d0: 4d67 1cbe f560 f6bc d389 05be 49b6 74bd
000000e0: 8d6b bb3d 41fd 433e 3672 4c3e e793 3e3e
000000f0: d30a 4fbe c3c9 20be c9a9 b23d 996a 75bd
00000100: fac2 81bd 0a94 eb3d 9c74 303d 8e35 f73d
00000110: e4ff f7bd 9537 28be 1fee 703d 30f5 4f3e
00000120: eb3e 343e 382f 2d3d 5a98 57bd 37cb a9bd
00000130: e649 e5bd c204 3cbc d651 38bc a12c 613e
00000140: ff29 d53d 1e0e a63d 8d0e 983d 6ef5 083e
00000150: 3b39 1a3e 7f32 043e 7a6f 713e 3268 313e
00000160: c7c8 f33d c57a 9c3d a6e8 d53d 6279 763d
00000170: a01a 133e d51d fe3d 79e6 803d e7d7 29bb
00000180: e7d3 03bc 8d6e 433e d8a2 873e cbe7 463e
00000190: dd07 693e 255e a43e a6dc 803e bf9c 8b3d
000001a0: c82f 38be a980 1ebd c4fd c83d d6a5 793e
000001b0: 26f1 183e f30f 8a3e 69b1 dd3e 6507 e73e
000001c0: 71e4 493e cc89 95bd 0005 e3bd 54fb 4d3d
000001d0: f2d5 473e 06ba 793d 6f17 813e 3b8a f03e
000001e0: 4bc0 013f 9019 bf3e 89e7 253e a840 29be
000001f0: 2908 693d 0ad0 03bd f5be d2bd 44e2 4c3e
00000200: 06ee a53e 01f9 c53e 999d 6a3e 089a c23d
00000210: e762 31be 35e5 86be 9125 71bc 3274 99bd
00000220: 7f11 efbd a1ba 2d3e 605d 2f3e 6257 a53d
00000230: 8c02 be3d 113e 58be 61bb 23be 5dcd d43d
00000240: ce98 e4bb 4c00 82bb 6ba7 f13d 22e9 1d3e
00000250: ebdc a63d 722e 89bd 1773 27be 5369 253e
00000260: f8e8 b63e c17d 793e 7dbc e63d a881 313e
00000270: 1095 dc3d 197f a43d ad9a 5c3c 63d5 0d3d
00000280: 67ca e03e e279 a83e a885 63be 2254 6abe
00000290: c48a 0dbe 9a09 d6bc 2b1d 3abd a8f0 8fbd
000002a0: 417f f9bd 16ac 92b9 be09 f5bc c9be e6bd
000002b0: 4389 00be 5ab9 5abc be7a 293c 32a7 33be
000002c0: 35a4 63be 69e6 3fbe dc39 21bd 6428 0d3d
000002d0: 6a57 92bd d752 62bd 84f1 c93d f2cf 643d
000002e0: 5c95 21be b911 adbe bfee b3be 1d76 25be
000002f0: 7517 ab3c 69a0 82bd f403 db3d d168 943e
00000300: 242e 6a3e 8562 ac3c 739b 93be 390a d8be
00000310: 58d3 24be ae34 b9bd 8889 1cbe dbb1 72bd
00000320: abc8 533e 3eb8 8f3e 19d1 a53d eab5 47be
00000330: 9549 c9be 5fe3 8fbe b309 9fbe d666 5ebe
00000340: 9951 80bb 6fed 973d 345b ad3d 779d de3c
00000350: e6a7 8bbd e36a b0be cf9c fbbe 2506 85be
00000360: 5a64 acbe 811a 6cbe 83d7 c6bd 292e fcbc
00000370: 114d 07be c3ea 1cbe 5ee4 a9be 9602 b9be
00000380: 625e 69be 8bcb 6bbe 3a05 61be 01d9 16be
00000390: a657 efbc 1173 0ebe cba2 69be e234 b9be
000003a0: dbaf 21be 2514 7cbd 1a67 6dbd e2f7 33be
000003b0: e9f5 d3bd 92c5 e2bd ad2d 4bbe e358 70be
000003c0: a3d1 7abe 5dbb 873d c76c adbd ae24 e53c
000003d0: 969b 84bd 3102 65bc f985 56bd e1ca 56bb
000003e0: a36d 01bd e0ba 4fbc 8ada 113d 6d12 0dbb
000003f0: 8697 e6bc 6b79 563b 8c2e 523d fce1 483d

conv1.bias f4 [6]
0.91665465 -0.07728559 -0.033268526 -0.11006164 -0.037527308 0.31217057
00000000: e1a9 6a3f e847 9ebd 9444 08bd ff67 e1bd
00000010: 3cb6 19bd d2d4 9f3e

bn1.weight f4 [6]
1.1516441 0.99967146 1.0002482 0.97506183 0.99655604 0.9893188
00000000: 1369 933f 78ea 7f3f 2208 803f a79d 793f
00000010: 4c1e 7f3f ff43 7d3f

bn1.bias f4 [6]
-0.04084195 0.36128026 0.18263905 -0.16267848 0.1649162 0.04482912
00000000: e349 27bd baf9 b83e bb05 3b3e 3095 26be
00000010: cbdf 283e bd9e 373d

bn1.running_mean f4 [6]
2.3379333 6e-45 6e-45 6e-45 6e-45 4.138982
00000000: b3a0 1540 0400 0000 0400 0000 0400 0000
00000010: 0400 0000 8a72 8440

bn1.running_var f4 [6]
1.6959614 6e-45 6e-45 6e-45 6e-45 2.7797797
00000000: 4315 d93f 0400 0000 0400 0000 0400 0000
00000010: 0400 0000 e9e7 3140

conv2.weight f4 [16, 6, 5, 5]
-0.12511995 -0.0010248447 -0.02905501 0.033090644 0.034641467 0.032959577 -0.0029477216 -0.013094495
-0.11143452 -0.011037545 0.052532863 0.009421662 0.04301279 -0.064614795 -0.09104403 -0.073040895
-0.00224158 0.17421496 0.31986383 0.23886101 0.043919038 0.012960471 -0.043505296 -0.13375612
-0.1362442 0.13489859 0.08822175 0.12120961 0.03371131 -0.008823481 0.013490772 0.13199092
0.1080248 0.0029218576 0.094586276 0.053449202 -0.019580979 0.13324475 0.049790613 0.04194303
0.10431289 0.100102335 -0.008589945 -0.018153945 0.011638265 -0.01907684 0.016931906 -0.017858878
0.008690046 0.12685548 0.023230406 0.0736973 -0.056684975 -0.053811815 -0.025842417 0.013684648
0.062562406 0.09312992 0.10173302 0.040367283 0.056698054 -0.011184803 0.037546158 0.03504101
0.021266518 0.10223207 0.06574176 0.035799127 -0.032279268 -0.05228595 0.041702263 0.05617244
-0.0042031202 0.058011677 0.029597435 0.00952095 -0.10242912 0.007270878 -0.024398617 0.0098684095
-0.06636304 -0.08256958 -0.087605745 -0.04382783 -0.05478414 -0.116136715 -0.035751875 -0.031103859
0.027363861 0.017082939 -0.08507138 -0.0026422495 -0.11291582 0.00394789 -0.12735203 -0.089699075
-0.008102968 0.024249295 0.029339977 -0.034249112 -0.06510584 -0.020755136 0.06499415 -0.011687399
0.03977978 -0.03039645 -0.024759095 0.08885454 -0.046251815 0.078844324 0.080746315 0.049328916
0.072335765 0.009313109 0.037763193 0.048106063 0.06536525 0.085889764 0.031988062 0.029187543
0.00801147 -0.022480818 0.051950365 0.04262649 0.087452695 -0.43262988 -0.52203906 -0.64601165
-0.44697 -0.0005341322 -0.29907405 0.06419482 0.10666901 0.12799557 0.10093928 -0.0015347316
0.29129258 0.4853535 0.5280762 0.48589358 -0.03327882 -0.022398492 -0.28796643 -0.12525392
0.13417336 -0.13899708 -0.060896847 -0.034507565 -0.0025906907 0.052150566 -0.03343997 -0.34504467
-0.47321716 -0.3942631 -0.35792017 -0.07139827 -0.058676027 -0.052041695 -0.098585926 -0.04416755
0.10678775 0.230082 0.20240624 0.037345573 0.012477485 0.18811558 0.09986939 0.12632886
-0.037628982 0.052525673 0.14077163 0.03235112 0.09131193 0.03675747 0.100355156 -0.06432088
-0.009573293 0.0008939903 0.043117497 0.0019785746 -0.020592013 -0.08875477 0.041247364 -0.03455275
0.048990346 -0.06278038 -0.06205045 -0.046450906 -0.0039516506 0.029350193 -0.0977246 0.042556256
-0.08244022 -0.014418404 -0.02236015 -0.010982411 -0.08740283 -0.07016458 -0.103261605 -0.09948266
-0.033771403 0.06973277 -0.06595286 0.004409037 0.059582114 -0.00991702 0.029196123 -0.07937902
0.06953465 0.06889886 -0.0549658 -0.005844518 0.00548827 -0.05819868 -0.06780609 -0.013630198
-0.055314224 -0.03378836 -0.003605014 0.012593011 -0.06573253 0.04500472 -0.047431782 -0.00941518
-0.074759535 -0.004371509 0.08982204 0.005337302 0.050191417 0.08229112 0.06256795 0.022490602
0.060068484 0.10040398 -0.04932953 0.08681478 -0.026210845 -0.034131918 -0.044755075 0.0394538
-0.0045744353 -0.00253771 -0.055369947 -0.006904915 -0.022788065 0.067213275 0.056335583 0.0514203
-0.0049988166 -0.005163113 -0.032413103 0.01596406 0.06968165 0.024313146 0.011014781 0.0010640204
00000000: 721f 00be 1554 86ba c604 eebc 0e8a 073d
00000010: 36e4 0d3d 9f00 073d 902e 41bb 4b8a 56bc
00000020: c837 e4bd d2d6 34bc b32c 573d 515d 1a3c
00000030: 2e2e 303d c354 84bd 4b75 babd 7796 95bd
00000040: 79e7 12bb 6865 323e 31c5 a33e fb97 743e
00000050: 73e4 333d 2858 543c 9c32 32bd 5df7 08be
00000060: 9983 0bbe db22 0a3e 9bad b43d be3c f83d
00000070: df14 0a3d 5d90 10bc 6608 5d3c a128 073e
00000080: 1b3c dd3d a37c 3f3b 73b6 c13d 8ded 5a3d
00000090: 4a68 a0bc 5071 083e 3ef1 4b3d 74cc 2b3d
000000a0: ffa1 d53d 7402 cd3d d7bc 0cbc 95b7 94bc
000000b0: 6cae 3e3c 0847 9cbc c8b4 8a3c c84c 92bc
000000c0: b260 0e3c 67e6 013e b14d be3c 9cee 963d
000000d0: 812e 68bd c769 5cbd 7ab3 d3bc 9335 603c
000000e0: b820 803d e6ba be3d 6759 d03d 2a58 253d
000000f0: 383c 683d 7740 37bc 00ca 193d 2987 0f3d
00000100: 1f37 ae3c 0c5f d13d 9ea3 863d 1ba2 123d
00000110: 4437 04bd cb29 56bd fecf 2a3d 1315 663d
00000120: 54ba 89bb a79d 6d3d 5276 f23c c2fd 1b3c
00000130: 5cc6 d1bd 8c40 ee3b 9cdf c7bc 1caf 213c
00000140: 58e9 87bd 3d1a a9bd a46a b3bd d084 33bd
00000150: 5665 60bd 16d9 edbd 8f70 12bd 85cd febc
00000160: 2d2a e03c 85f1 8b3c e739 aebd 9729 2dbb
00000170: 6940 e7bd 4d5d 813b 9268 02be 26b4 b7bd
00000180: 50c2 04bc 75a6 c63c 645a f03c cc48 0cbd
00000190: 3656 85bd ad06 aabc a71b 853d 817c 3fbc
000001a0: 1ff0 223d fa01 f9bc 96d3 cabc 5ef9 b53d
000001b0: 8b72 3dbd 2279 a13d 535e a53d 1e0d 4a3d
000001c0: c624 943d 0396 183c 94ad 1a3d dd0a 453d
000001d0: 37de 853d f9e6 af3d ea05 033d b71a ef3c
000001e0: 8a42 033c b129 b8bc e8c9 543d 1d99 2e3d
000001f0: 661a b33d aa81 ddbe 5aa4 05bf 0561 25bf
00000200: 40d9 e4be 0105 0cba 3c20 99be 9378 833d
00000210: 4875 da3d 4511 033e 41b9 ce3d 0c29 c9ba
00000220: 4d24 953e 4180 f83e 0030 073f 0bc7 f83e
00000230: 5f4f 08bd 0b7d b7bc 5670 93be 9042 00be
00000240: be64 093e 4055 0ebe f96e 79bd ce57 0dbd
00000250: 94c8 29bb d59b 553d 5af8 08bd b2a9 b0be
00000260: 8549 f2be dadc c9be 5041 b7be 4239 92bd
00000270: 4656 70bd ac29 55bd 6be7 c9bd 08e9 34bd
00000280: 89b3 da3d 9e9a 6b3e 9543 4f3e acf7 183d
00000290: 5e6e 4c3c 5fa1 403e 5388 cc3d 5a5c 013e
000002a0: d920 1abd 2925 573d 7026 103e 9c82 043d
000002b0: c001 bb3d 008f 163d 0187 cd3d aaba 83bd
000002c0: 4dd9 1cbc ac5a 6a3a f99b 303d f9aa 013b
000002d0: 95b0 a8bc 10c5 b5bd fff2 283d 2f87 0dbd
000002e0: 1aaa 483d 0093 80bd 9d28 7ebd 4e43 3ebd
000002f0: d97c 81bb d16f f03c d623 c8bd 784f 2e3d
00000300: 6bd6 a8bd 2b3b 6cbc a22c b7bc 92ef 33bc
00000310: 4100 b3bd 73b2 8fbd d27a d3bd 91bd cbbd
00000320: e253 0abd 0ed0 8e3d 4b12 87bd af79 903b
00000330: 600c 743d ff7a 22bc b52c ef3c 7891 a2bd
00000340: 2f68 8e3d d81a 8d3d d223 61bd 5f83 bfbb
00000350: f2d6 b33b bd61 6ebd ebdd 8abd 3251 5fbc
00000360: 2b91 62bd aa65 0abd 1942 6cbb eb52 4e3c
00000370: c79e 86bd df56 383d d447 42bd 2142 1abc
00000380: 871b 99bd e03e 8fbb 9ef4 b73d 89e4 ae3b
00000390: 8495 4d3d 3f88 a83d a023 803d 363e b83c
000003a0: 5f0a 763d 9aa0 cd3d c30d 4abd f3cb b13d
000003b0: 20b8 d6bc e9cd 0bbd 1951 37bd 4f9a 213d
000003c0: 25e5 95bb b54f 26bb 99cb 62bd a042 e2bb
000003d0: 09ae babc 1da7 893d 24c0 663d 189e 523d
000003e0: 1dcd a3bb 552f a9bb 9ac3 04bd 0fc7 823c
000003f0: 41b5 8e3d 5d2c c73c 5777 343c 9a76 8b3a

conv2.bias f4 [16]
0.28719443 -0.13895856 -0.1110611 0.15128008 -0.007797049 0.0531234 0.043122616 0.07049125
0.09090243 0.14711477 -0.14735149 -0.10270904 -0.2556594 0.08852171 0.0015729773 -0.046082426
00000000: 260b 933e 274b 0ebe 0174 e3bd 2ae9 1a3e
00000010: 637e ffbb ec97 593d 57a1 303d b75d 903d
00000020: 0e2b ba3d 41a5 163e 4fe3 16be 1e59 d2bd
00000030: cae5 82be df4a b53d 5c2c ce3a edc0 3cbd

bn2.weight f4 [16]
0.88846993 0.73690367 0.7920499 0.7896035 0.9027012 0.75066763 0.83124274 0.8218963
0.89144546 0.8149164 0.7277486 0.8314658 0.7036044 0.7156967 1.0527879 0.911179
00000000: c472 633f b8a5 3c3f c8c3 4a3f 7423 4a3f
00000010: 6d17 673f c12b 403f 53cc 543f cc67 523f
00000020: c535 643f 5c9e 503f bb4d 3a3f f1da 543f
00000030: 6b1f 343f e637 373f c1c1 863f 0743 693f

bn2.bias f4 [16]
-0.2997138 -0.34741157 -0.11848631 -0.20679288 -0.3124197 -0.13804005 -0.30586562 -0.17985336
-0.05171276 -0.16333221 -0.15802434 -0.1169364 -0.21826445 -0.27485883 -0.26027736 -0.123388745
00000000: 1674 99be eedf b1be f3a8 f2bd 83c1 53be
00000010: 7af5 9fbe 5f5a 0dbe 6b9a 9cbe 7b2b 38be
00000020: c2d0 53bd 8f40 27be 22d1 21be 5a7c efbd
00000030: b780 5fbe 4cba 8cbe 1343 85be 3db3 fcbd

bn2.running_mean f4 [16]
1.1331236 0.4776639 0.5894494 0.93834543 1.0084448 0.49947673 0.8550511 1.0225171
1.9897265 0.6678625 0.6706925 0.5220076 0.34829804 0.6646494 1.0816492 0.77132756
00000000: 320a 913f 5d90 f43e 28e6 163f 6837 703f
00000010: b814 813f 6abb ff3e a1e4 5a3f d7e1 823f
00000020: 5caf fe3f 09f9 2a3f 81b2 2b3f 4aa2 053f
00000030: 1f54 b23e 7726 2a3f 7b73 8a3f b975 453f

bn2.running_var f4 [16]
1.3702872 0.70233655 1.2025409 1.4270676 1.9752305 0.8527605 1.2907414 1.2469732
2.6688843 1.1251956 1.2904261 0.75882244 0.5981527 0.82393986 1.6438428 1.3692435
00000000: 9265 af3f 54cc 333f dcec 993f 27aa b63f
00000010: 5ad4 fc3f 834e 5a3f 0437 a53f d19c 9f3f
00000020: 00cf 2a40 6906 903f af2c a53f 3042 423f
00000030: 8920 193f b9ed 523f 7169 d23f 5f43 af3f

fc1.weight f4 [120, 256]
-0.057012927 -0.0052221655 -0.071014106 -0.045997035 -0.07183463 -0.06802404 0.018166056 0.019210083
-0.0072272657 0.0041771294 -0.0054259817 0.025953552 0.060828086 0.107217014 -0.009103603 0.017851418
0.005049774 -0.04169138 -0.045554273 -0.081711896 0.025639778 -0.06999782 0.011491552 -0.058368877
0.013683138 -0.08266527 0.0055691395 0.067053266 0.034189094 0.03609975 0.04954246 0.016158056
-0.03516186 -0.002962585 0.011119514 -0.062240437 0.09779517 -0.0151586635 -0.04854791 -0.06019796
0.088162035 0.05412311 -0.032182332 -0.002371071 -0.06791375 0.07637906 0.0067611164 -0.013464388
0.004031823 -0.06203818 -0.01573739 0.07229423 -0.040503196 0.03146764 0.009984854 0.018404778
-0.026172552 0.011301269 0.004306942 0.009479163 -0.002548464 -0.0070725293 0.047309507 -0.02874124
0.014003388 0.02994453 -0.033026792 -0.0888542 0.09644062 0.0430438 -0.03996848 -0.031566877
0.035341233 0.011549836 0.07919057 -0.006340202 0.1353867 -0.10361085 0.009789681 0.06941407
-0.0500791 -0.0050242753 -0.0109353 -0.054563835 0.022903753 0.05343209 -0.03052506 -0.07372977
0.0035876154 0.023226261 0.010658933 0.06666781 -0.08605332 -0.11935666 -0.11201567 0.018731235
0.007830347 0.023813354 -0.09803837 0.03002715 -0.031130433 -0.010944393 -0.0128465565 0.019596677
0.041371576 0.04664255 0.10801449 0.08453711 -0.011916637 -0.057251684 -0.030343857 -0.047913432
-0.009973547 -0.040143505 -0.029405056 0.04514098 -0.046079066 -0.046957307 0.00855626 -0.052607413
0.040196273 -0.02455448 -0.03543039 0.037772123 0.0004389537 -0.11440285 0.023197912 -0.0032609603
-0.013795146 -0.05719348 -0.048364226 -0.027451895 0.028265122 0.01191263 0.06444671 -0.018588774
-0.023391904 -0.010418804 0.04483003 0.13877887 0.024646008 -0.04380608 -0.03201869 0.08540081
0.03516997 -0.008065671 0.059463542 0.083748795 0.02541102 -0.05336981 -0.00043966286 -0.032573994
0.066397876 0.00020078111 -0.031584453 -0.114002965 -0.018221676 0.09109606 0.08874601 -0.0022650186
-0.011118888 -0.09338123 -0.10949883 -0.084819056 -0.0024238394 0.021052752 -0.08753216 -0.01418629
-0.0086073615 0.08306098 0.0048923586 -0.014089494 0.003671286 0.028388152 0.052883048 0.07462086
-0.08464698 -0.10796373 -0.034997005 0.05728241 -0.039433885 -0.050153706 -0.032606106 -0.025511904
-0.02099467 0.018247876 0.06351556 0.075729065 -0.009904495 0.06813753 0.06385427 0.026340667
0.014717677 0.05412971 -0.037129816 -0.032920543 0.012583842 0.011920678 -0.00029268992 0.042029027
0.00088824495 0.10262703 0.14802526 0.038337916 -0.031213598 0.042733893 0.07026151 0.083741866
0.051909085 0.056683015 -0.035662 0.044561133 -0.029200763 0.020271417 0.023239102 -0.02684798
0.023145244 -0.074926674 -0.05677373 0.0046143807 -0.05594637 -0.0039726547 -0.03908275 -0.11710467
-0.04553357 -0.030376535 -0.10478841 -0.097451925 -0.010746051 -0.0861434 -0.019665068 -0.10569226
0.0034789257 -0.015504082 -0.04782036 -0.05948756 -0.071601234 -0.071745135 0.026031384 0.019489398
-0.1618154 -0.15758084 -0.05905692 -0.036513865 0.016368182 -0.06619961 -0.0555741 -0.034964718
-0.020846352 -0.11259611 -0.039126 0.024369005 0.00032685653 -0.019913878 -0.06534947 0.052733712
00000000: 6386 69bd b31e abbb d86f 91bd 6367 3cbd
00000010: 091e 93bd 3050 8bbd fbd0 943c 775e 9d3c
00000020: b3d2 ecbb 4de0 883b 6fcc b1bb 8b9c d43c
00000030: df26 793d 9894 db3d 4727 15bc 233d 923c
00000040: 9378 a53b 95c4 2abd 1e97 3abd 9158 a7bd
00000050: 830a d23c 045b 8fbd 1047 3c3c 3414 6fbd
00000060: 3e2f 603c 694c a9bd 547d b63b 3953 893d
00000070: dd09 0c3d 55dd 133d 09ed 4a3d e65d 843c
00000080: e205 10bd ee27 42bb 9f2e 363c d4ef 7ebd
00000090: d648 c83d 0b5c 78bc 2cda 46bd 2392 76bd
000000a0: 4c8e b43d 32b0 5d3d 9fd1 03bd f863 1bbb
000000b0: 5d16 8bbd a06c 9c3d 5b8c dd3b bd99 5cbc
000000c0: 621d 843b bf1b 7ebd b3eb 80bc ff0e 943d
000000d0: aee6 25bd 36e4 003d 8397 233c 9ec5 963c
000000e0: d267 d6bc f528 393c 4021 8d3b 7e4e 1b3c
000000f0: 2204 27bb adc0 e7bb 9dc7 413d c072 ebbc
00000100: 776e 653c 3b4e f53c 1a47 07bd 31f9 b5bd
00000110: a982 c53d b24e 303d fdb5 23bd 454c 01bd
00000120: f8c1 103d 863b 3d3c aa2e a23d 78c1 cfbb
00000130: d0a2 0a3e ed31 d4bd e664 203c f728 8e3d
00000140: be1f 4dbd ada2 a4bb f929 33bc 547e 5fbd
00000150: a7a0 bb3c 9bdb 5a3d b10f fabc a2ff 96bd
00000160: 331e 6b3b 0045 be3c cea2 2e3c 2289 883d
00000170: b93c b0bd 4471 f4bd 7968 e5bd 3f72 993c
00000180: db4a 003c 3914 c33c 57c8 c8bd 7ffb f53c
00000190: 4005 ffbc 1d50 33bc 5d7a 52bc 3689 a03c
000001a0: 3e75 293d 420c 3f3d b336 dd3d cb21 ad3d
000001b0: 003e 43bc be80 6abd ae93 f8bc e040 44bd
000001c0: 1768 23bc 846d 24bd dfe2 f0bc c0e5 383d
000001d0: 67bd 3cbd 4e56 40bd 8e2f 0c3c df7a 57bd
000001e0: d9a4 243d 7a26 c9bc 751f 11bd f1b6 1a3d
000001f0: 5e23 e639 0b4c eabd 8c09 be3c d6b5 55bb
00000200: 0905 62bc b643 6abd 9119 46bd cce2 e0bc
00000210: 428c e73c 312d 433c a3fc 833d 7c47 98bc
00000220: 61a0 bfbc a2b3 2abc b29f 373d 0c1c 0e3e
00000230: 6de6 c93c 016e 33bd 0826 03bd 9fe6 ae3d
00000240: 630e 103d e025 04bc 0b90 733d 7d84 ab3d
00000250: c52a d03c 4d9a 5abd 8d82 e6b9 4f6c 05bd
00000260: 9cfb 873d c588 5239 b35e 01bd 637a e9bd
00000270: a045 95bc 9290 ba3d 78c0 b53d b570 14bb
00000280: ff2b 36bc a93e bfbd ec40 e0bd 9db5 adbd
00000290: 47d9 1ebb d276 ac3c 1044 b3bd 9d6d 68bc
000002a0: e405 0dbc e01b aa3d 1450 a03b 9fd7 66bc
000002b0: f599 703b 458e e83c e59b 583d d2d2 983d
000002c0: 655b adbd 171c ddbd 0559 0fbd f6a0 6a3d
000002d0: 6d85 21bd f96d 4dbd fb8d 05bd 57fe d0bc
000002e0: 04fd abbc 927c 953c 7214 823d d717 9b3d
000002f0: 7746 22bc b08b 8b3d 07c6 823d 62c8 d73c
00000300: 6922 713c 1db7 5d3d 6f15 18bd b1d7 06bd
00000310: 752c 4e3c f34e 433c 2d74 99b9 a126 2c3d
00000320: 1cd9 683a 1f2e d23d ef93 173e 3808 1d3d
00000330: a9b3 ffbc bc09 2f3d 44e5 8f3d db80 ab3d
00000340: 9f9e 543d 732c 683d 5112 12bd bc85 363d
00000350: 7036 efbc 3e10 a63c ee5f be3c 4cf0 dbbc
00000360: 189b bd3c 2873 99bd 928b 68bd 3b34 973b
00000370: 0528 65bd 0b2d 82bb 3c15 20bd 93d4 efbd
00000380: 6981 3abd 36d8 f8bc 4e9b d6bd e094 c7bd
00000390: 3410 30bc f36b b0bd a318 a1bc 2f75 d8bd
000003a0: b0fe 633b d504 7ebc 48df 43bd 3aa9 73bd
000003b0: aba3 92bd 1def 92bd c53f d53c 3ba8 9f3c
000003c0: f0b2 25be df5c 21be abe5 71bd 908f 15bd
000003d0: 9116 863c a993 87bd aba1 63bd 2a37 0fbd
000003e0: f8c5 aabc ca98 e6bd 9642 20bd 82a1 c73c
000003f0: f15d ab39 6e22 a3bc f1d5 85bd 4eff 573d

fc1.bias f4 [120]
-0.05536495 0.041866463 -0.05761368 -0.045683015 -0.10825147 -0.0802244 0.014233433 -0.029802412
0.0129603855 -0.02519771 0.030507168 0.013772556 -0.007837775 -0.0010869825 -0.07151385 0.022285167
-0.049111705 -0.005338975 -0.06396686 -0.03326113 -0.051840346 0.017897857 -0.04866046 -0.033225197
-0.029395685 -0.03993703 0.0060358024 -0.058434147 0.05268955 -0.027736746 -0.02937433 0.050078932
-0.026478047 -0.08580995 0.025944117 -0.043329187 0.05661978 0.049843978 -0.022829989 -0.056346048
0.012774401 0.018517284 -0.038728874 0.011705511 0.005074461 0.008760209 -0.035561837 -0.0009830176
0.0038684222 -0.0779578 -0.051038183 -0.007187194 -0.014376344 -0.04937177 -0.03960343 0.0013928263
-0.049418233 0.00049117097 0.059728727 0.05106544 -0.09684897 -0.010690387 -0.025919167 -0.04177305
0.035412505 -0.035296116 -0.041048676 0.0099198315 0.010169092 0.010346489 -0.06308378 0.04690302
-0.044924602 -0.017438622 0.02628231 0.0039911913 0.0047488823 -0.07293542 -0.0019420186 0.022677768
-0.058346964 -0.04935313 -0.04033371 -0.005147488 -0.08438799 -0.050102185 -0.11801662 0.019065391
-0.038413275 -0.045801878 -0.009057027 -0.0068067666 -0.092472635 -0.01598298 0.003482784 -0.10349833
-0.05523218 -0.035947464 0.05621848 -0.07877503 -0.04041095 0.08851536 -0.115784734 0.03075015
0.016735438 -0.082106724 -0.107622996 -0.10042576 -0.01433308 -0.06502486 -0.049303107 -0.0014640548
0.06812004 -0.09379574 0.043475877 -0.03136111 0.15619077 0.028720345 0.03124309 0.08756415
00000000: 5cc6 62bd 2b7c 2b3d 52fc 6bbd 1d1e 3bbd
00000010: f2b2 ddbd b14c a4bd 5833 693c 3024 f4bc
00000020: cc57 543c 6e6b cebc 2bea f93c 49a6 613c
00000030: 036a 00bc 1579 8eba da75 92bd 628f b63c
00000040: 5b29 49bd 92f2 aebb 0f01 83bd d33c 08bd
00000050: 8b56 54bd 879e 923c 3150 47bd 2517 08bd
00000060: 38cf f0bc 0395 23bd fbc7 c53b a558 6fbd
00000070: ffd0 573d 2c38 e3bc 6fa2 f0bc 911f 4d3d
00000080: 7de8 d8bc 21bd afbd c288 d43c f279 31bd
00000090: 24ea 673d 3329 4c3d f505 bbbc 1dcb 66bd
000000a0: b94b 513c 8fb1 973c 2ba2 1ebd 79c8 3f3c
000000b0: aa47 a63b fb86 0f3c 4aa9 11bd 99d8 80ba
000000c0: 5b85 7d3b 57a8 9fbd 6a0d 51bd 8e82 ebbb
000000d0: c28a 6bbc 0e3a 4abd 3537 22bd 7f8f b63a
000000e0: c66a 4abd edc1 003a 1ca6 743d ff29 513d
000000f0: c158 c6bd bc26 2fbc 6f54 d4bc 381a 2bbd
00000100: b40c 113d a992 10bd a822 28bd ca86 223c
00000110: 439c 263c 5284 293c 1232 81bd 621d 403d
00000120: dc02 38bd 71db 8ebc 004e d73c 8ac8 823b
00000130: 839c 9b3b 2a5f 95bd 558b feba bac6 b93c
00000140: 3afd 6ebd 8226 4abd f634 25bd 42ac a8bb
00000150: 9cd3 acbd f337 4dbd b3b2 f1bd 062f 9c3c
00000160: 3d57 1dbd c09a 3bbd ed63 14bc 4c0b dfbb
00000170: 4b62 bdbd bdee 82bc 6b3f 643b eff6 d3bd
00000180: 233b 62bd a63d 13bd 5945 663d ce54 a1bd
00000190: f485 25bd 8b47 b53d 8c20 edbd bde7 fb3c
000001a0: c218 893c 9227 a8bd 7269 dcbd 05ac cdbd
000001b0: 4bd5 6abc c12b 85bd 0ef2 49bd 87e5 bfba
000001c0: 8582 8b3d fb17 c0bd c313 323d 8274 00bd
000001d0: 79f0 1f3e ee46 eb3c 82f1 ff3c d554 b33d

fc2.weight f4 [84, 120]
-0.08327852 -0.03900099 -0.058441553 -0.048437994 -0.09447343 -0.009168446 0.09431716 -0.07551968
-0.07689276 0.034815203 -0.011515954 -0.0042626676 -0.038350876 -0.0076355813 -0.015002308 -0.0110179
-0.04041424 0.066447966 0.06747446 -0.07592166 0.10366742 0.07893561 0.07725467 -0.04630404
-0.07914061 0.034886383 0.020559415 -0.08233115 -0.0059565753 -0.0019731524 -0.08163495 0.14962626
0.10124815 -0.050333258 0.07052607 0.01247078 -0.05907861 -0.09119282 -0.0041560098 -0.05069045
-0.06580052 0.07844627 0.022120785 0.027950883 0.1839258 -0.09101729 -0.05452361 -0.010263502
0.0834827 -0.08835282 -0.068959214 0.018246865 0.05336625 0.014736195 0.010243605 0.038960855
0.032647464 -0.0934228 0.062281847 0.054706655 -0.08770512 -0.033863347 0.13596927 0.08705404
0.009607256 0.025860153 0.076708496 -0.01295405 0.011115842 -0.035969965 -0.026356237 -0.021029755
-0.07815347 -0.09168362 -0.04061992 0.033228446 -0.029716963 -0.08896443 -0.01777219 -0.02432347
-0.0137235755 0.053074736 -0.0040828804 0.07006715 -0.03904527 -0.054600723 -0.025884038 -0.048442014
0.059232287 0.12626383 0.019891005 0.007391635 -0.09608381 -0.0485381 -0.06147392 0.01655153
-0.024380704 0.017871812 -0.011994557 -0.066116095 0.15901534 0.047660783 -0.077040374 0.09282025
0.060689922 -0.023386627 -0.05676137 -0.0034441901 0.09455659 -0.0448961 -0.028940741 -0.04354133
-0.057671767 0.0034157045 0.06692453 -0.05889595 -0.017569505 -0.024957877 -0.07138836 0.12647304
0.00441183 0.05983079 -0.038831268 -0.02427863 -0.15091701 0.21898739 0.070956446 0.0743978
-0.09096135 -0.15087378 -0.04937533 -0.035379972 0.05585979 -0.11353609 0.09736807 0.20479272
0.033400893 0.060906798 -0.04934413 0.06334737 0.0021550108 -0.09207774 -0.07678727 0.08154263
-0.14169122 0.019626956 -0.0064843544 -0.004169033 0.063406266 -0.061273724 -0.0152986115 -0.026504831
0.018953111 -0.019966908 0.05787099 -0.03595984 0.11551085 0.012726704 0.023101946 0.019140733
-0.10280273 0.100208715 0.19942608 -0.054831114 0.12680276 -0.10008006 0.025807738 -0.033907853
0.036416218 0.094935685 -0.08720101 0.23489346 -0.10192782 0.07951071 -0.035114344 0.18534267
-0.044778157 0.040600248 -0.10821008 -0.06523899 -0.055947404 -0.0077701914 0.10287985 0.024605775
-0.10485289 0.059064224 0.03662398 -0.07773011 0.058814153 0.09751005 -0.026077507 0.03713206
-0.10661148 -0.06318838 -0.15239222 0.07212075 0.005423837 -0.009048219 0.06660332 0.001438621
-0.08166801 0.07509382 -0.0902977 -0.14160952 -0.1326594 -0.06744165 -0.012799925 0.012504059
0.0793083 0.04108882 0.06513986 -0.0036957355 -0.07418949 0.102071546 0.09820856 -0.0945458
0.049271565 0.056027364 0.017605223 -0.16609263 0.017786503 0.12234572 0.006163238 0.05878687
-0.049946923 -0.0761101 0.038715426 -0.1719439 0.04688596 -0.11658684 -0.106866695 0.017288893
0.020293929 -0.17936243 0.08533013 -0.04464265 0.12881069 -0.005099184 -0.033048745 0.093227334
-0.095313065 0.024737949 -0.06465965 -0.15600339 -0.1516182 0.09537295 -0.0431187 0.025581092
-0.122063406 -0.12966122 0.04886764 0.047132075 0.081734784 0.07965884 -0.12718931 0.14089802
00000000: ee8d aabd 81bf 1fbd 6960 6fbd eb66 46bd
00000010: 497b c1bd 4037 16bc 5b29 c13d 10aa 9abd
00000020: f479 9dbd 639a 0e3d 69ad 3cbc d9ad 8bbb
00000030: cf15 1dbd e633 fabb 3ecc 75bc 6c84 34bc
00000040: 6789 25bd df15 883d 0d30 8a3d d17c 9bbd
00000050: 964f d43d fea8 a13d b237 9e3d 4ea9 3dbd
00000060: 7914 a2bd 06e5 0e3d 386c a83c 3c9d a8bd
00000070: 602f c3bb 0150 01bb 3a30 a7bd a037 193e
00000080: 315b cf3d 3f2a 4ebd f96f 903d 3e52 4c3c
00000090: 6afc 71bd 4dc3 babd 232f 88bb caa0 4fbd
000000a0: 6cc2 86bd 70a8 a03d a636 b53c 40f9 e43c
000000b0: 0b57 3c3e 4667 babd 2654 5fbd 3f28 28bc
000000c0: faf8 aa3d 53f2 b4bd 7d3a 8dbd 737a 953c
000000d0: 9296 5a3d 1570 713c cbd4 273c 6b95 1f3d
000000e0: 59b9 053d 7454 bfbd 401b 7f3d 1614 603d
000000f0: be9e b3bd 4bb4 0abd 873b 0b3e 6349 b23d
00000100: c167 1d3c acd8 d33c 5819 9d3d 393d 54bc
00000110: 381f 363c 3e55 13bd 09e9 d7bc 9846 acbc
00000120: ed0e a0bd 9fc4 bbbd 1361 26bd 8d1a 083d
00000130: fd70 f3bc fc32 b6bd fc96 91bc 0442 c7bc
00000140: d9d8 60bc e564 593d afc9 85bb 5e7f 8f3d
00000150: efed 1fbd 02a5 5fbd c30a d4bc 226b 46bd
00000160: 8e9d 723d 4e4b 013e 76f2 a23c 8735 f23b
00000170: 97c7 c4bd e3cf 46bd 14cc 7bbd 1397 873c
00000180: 0bba c7bc e867 923c d284 44bc e067 87bd
00000190: ebd4 223e f437 433d 58c7 9dbd 8b18 be3d
000001a0: ff95 783d 5095 bfbc 9c7e 68bd ecb7 61bb
000001b0: e3a6 c13d f9e4 37bd 2215 edbc 6558 32bd
000001c0: 3b39 6cbd 03da 5f3b ba0f 893d e13c 71bd
000001d0: eced 8fbc 7674 ccbc 0f34 92bd 2682 013e
000001e0: 1d91 903b 2111 753d 890d 1fbd fae3 c6bc
000001f0: fd89 1abe 3b3e 603e 9d51 913d e05d 983d
00000200: f249 babd a87e 1abe c93d 4abd 97ea 10bd
00000210: 3ccd 643d 9c85 e8bd e968 c73d 2fb5 513e
00000220: 60cf 083d 6879 793d 121d 4abd 44bc 813d
00000230: 153b 0d3b 4193 bcbd a542 9dbd d3ff a63d
00000240: 8117 11be b6c8 a03c b57a d4bb 629c 88bb
00000250: 25db 813d 28fa 7abd 07a7 7abc a920 d9bc
00000260: 8e43 9b3c a491 a3bc 220a 6d3d a04a 13bd
00000270: f490 ec3d aa83 503c 4b40 bd3c 07cd 9c3c
00000280: 3d8a d2bd 3a3a cd3d 5a36 4c3e 9796 60bd
00000290: 95d8 013e c6f6 ccbd c06a d33c f6e2 0abd
000002a0: 2c29 153d a46d c23d 7196 b2bd e987 703e
000002b0: 88bf d0bd 83d6 a23d 0fd4 0fbd 78ca 3d3e
000002c0: 4d69 37bd 724c 263d 3f9d ddbd 059c 85bd
000002d0: 1b29 65bd 179d febb acb2 d23d 0d92 c93c
000002e0: 1dbd d6bd 54ed 713d 0703 163d f730 9fbd
000002f0: 1ce7 703d 59b3 c73d 7fa0 d5bc c917 183d
00000300: 1f57 dabd e968 81bd b50c 1cbe 0bb4 933d
00000310: 71ba b13b fb3e 14bc 5267 883d 1c90 bc3a
00000320: 8f41 a7bd caca 993d 00ee b8bd 1602 11be
00000330: ded7 07be d91e 8abd c7b6 51bc d3dd 4c3c
00000340: 646c a23d c04c 283d 0c68 853d 2734 72bb
00000350: a9f0 97bd e30a d13d 9221 c93d 3aa1 c1bd
00000360: fbd0 493d f37c 653d d438 903c 3014 2abe
00000370: 00b5 913c 6590 fa3d fdf4 c93b 80ca 703d
00000380: 2595 4cbd 9ddf 9bbd 1194 1e3d 1012 30be
00000390: 7e0b 403d 15c5 eebd eddc dabd 70a1 8d3c
000003a0: 743f a63c c9aa 37be 90c1 ae3d 36db 36bd
000003b0: f3e6 033e 0e17 a7bb 1f5e 07bd f9ed be3d
000003c0: 7f33 c3bd 3da7 ca3c 476c 84bd 5abf 1fbe
000003d0: cd41 1bbe e552 c33d 3c9d 30bd 708f d13c
000003e0: 61fc f9bd e9c5 04be 6f29 483d 900d 413d
000003f0: 9164 a73d 2d24 a33d ea3d 02be 9247 103e

fc2.bias f4 [84]
-0.04449297 -0.01860039 0.08798899 -0.05790554 0.058899123 -0.026666932 -0.012215308 -0.062022984
0.014918833 -0.081367865 -0.04383561 0.05996884 0.021077836 0.017968185 -0.06269288 0.053144604
0.044369426 0.090010904 0.08015619 -0.0389258 -0.00564482 0.113740794 0.07421069 0.04731308
-0.035703406 -0.005872879 0.09459404 -0.0014319182 0.0032674638 -0.035388395 0.16601564 -0.111001484
-0.010925836 -0.016215561 0.07052057 0.06016282 -0.03782482 -0.0453178 -0.014361558 -0.0049562836
-0.08093543 0.2025121 0.04500447 0.005105712 0.00055143464 -0.036053818 -0.055879354 0.07375488
-0.0071059265 0.1383806 0.10269469 -0.039147757 -0.016349768 -0.0265804 -0.064022906 0.027310986
-0.015141268 0.05024172 0.092347436 0.14306165 -0.053496126 0.15153934 0.02575892 -0.031098772
0.1942373 -0.028799329 0.01854678 0.122807615 0.0063084415 -0.041766644 -0.04139719 0.09182318
0.07460407 0.0013674902 -0.059165996 0.09608262 -0.07251461 -0.02615354 -0.046821088 0.07840984
-0.014203182 -0.0036716342 -0.017844513 0.019387247
00000000: 433e 36bd d85f 98bc 9233 b43d 5c2e 6dbd
00000010: 3540 713d 9c74 dabc b722 48bc d00b 7ebd
00000020: 1f6e 743c 32a4 a6bd f88c 33bd e3a1 753d
00000030: 6dab ac3c 0432 933c 2065 80bd 28ae 593d
00000040: b7bc 353d a357 b83d ee28 a43d a970 1fbd
00000050: 2ff8 b8bb eff0 e83d c6fb 973d 5ccb 413d
00000060: bc3d 12bd 4871 c0bb 85ba c13d 34af bbba
00000070: f222 563b 6cf3 10bd 0100 2a3e bf54 e3bd
00000080: 4702 33bc 7fd6 84bc 176d 903d 4a6d 763d
00000090: 33ee 1abd 289f 39bd bd4c 6bbc 5268 a2bb
000000a0: 7ac1 a5bd 555f 4f3e 9b56 383d d14d a73b
000000b0: 278e 103a 2bad 13bd c0e1 64bd cc0c 973d
000000c0: d5d8 e8bb a5b3 0d3e 9851 d23d 6659 20bd
000000d0: f3ef 85bc 24bf d9bc 711e 83bd 4abb df3c
000000e0: 1513 78bc 43ca 4d3d a720 bd3d c17e 123e
000000f0: c11e 5bbd 212d 1b3e 5f04 d33c dac2 febc
00000100: 25e6 463e 92ec ebbc 6bef 973c 8f82 fb3d
00000110: 0bb7 ce3b 8013 2bbd 1a90 29bd cb0d bc3d
00000120: 05ca 983d 5b3d b33a 0b58 72bd f7c6 c43d
00000130: 8a82 94bd f33f d6bc 78c7 3fbd 5795 a03d
00000140: 77b4 68bc cd9f 70bb a82e 92bc 01d2 9e3c

fc3.weight f4 [10, 84]
-0.15543038 -0.118689775 -0.11043482 -0.059319846 -0.21498536 0.034730345 -0.05038798 0.08877583
0.11614596 0.09922017 0.116514295 0.29647952 0.16888586 -0.04016727 0.260313 -0.12044793
0.26501596 0.23193255 0.027764605 0.08411883 0.10787205 -0.089190796 -0.19187853 0.21112107
-0.16000023 -0.06490512 0.015017501 0.15833351 -0.09343841 -0.2016693 0.057562653 0.19259118
-0.07278563 -0.24781382 -0.00585908 0.11933817 -0.031309452 0.13844825 -0.09962236 0.010012969
0.13026258 -0.14070727 0.21410364 0.15313879 0.24499282 0.017724518 0.04857472 0.03452766
0.009174993 0.05910814 0.0065023955 0.19767365 -0.22339073 0.07422144 0.016545957 -0.055291317
0.11056404 0.032179732 -0.31433922 -0.18302453 0.08993342 0.18403272 -0.003780402 0.23079272
-0.10689308 0.043884307 0.30759636 0.01072054 -0.2740962 0.2773221 0.14533293 -0.1160318
-0.058511347 -0.097699285 0.17269386 -0.33107033 -0.016165193 0.09539401 0.12327289 0.123941794
-0.05505569 0.121317685 -0.1653906 -0.028193107 -0.103123344 -0.3002593 -0.2534787 0.14627892
-0.12855627 0.053852037 0.06225527 -0.16474001 -0.16244867 -0.0293636 -0.025892965 -0.08841933
0.0006362622 -0.13346283 -0.051731274 0.35205027 0.17223999 0.10821415 -0.13433772 -0.029924149
0.080841735 0.17753091 -0.21672441 -0.21208951 0.03379298 0.23974162 0.19578952 0.07280324
0.07085388 -0.13035609 -0.15122029 0.14874813 0.023351507 0.21255073 -0.04921393 -0.13411288
0.15523113 -0.0062440317 -0.09999927 0.037733655 0.07911563 -0.2510171 -0.20789479 -0.2398681
0.23783919 0.057425633 0.078548245 -0.15192749 0.0014116374 -0.13519798 0.26517606 -0.0013556433
0.14786139 0.05666791 -0.11156564 0.11449814 -0.06733951 0.07892069 -0.2584565 -0.041711297
-0.08998955 -0.049476326 -0.21717775 0.0008046001 -0.28531379 -0.029963717 -0.30619937 0.3412393
0.011654782 0.22299129 0.16975442 -0.019020755 -0.046971 0.12947856 0.06979724 0.016113061
-0.07063881 -0.24281032 0.21002655 -0.0036626477 -0.06395315 0.052585788 0.07424243 -0.13036627
0.002719363 0.2215856 -0.13040471 0.09954128 -0.19496912 -0.006323127 0.001870387 0.03539222
0.07708599 0.056400042 -0.05387065 0.11785771 -0.00045759568 -0.00396405 -0.14262272 -0.07917298
0.20582336 -0.08734359 -0.049987905 -0.023172421 -0.015520893 -0.11437784 0.12231131 0.15799227
-0.04443147 -0.004448559 -0.08914835 -0.027044762 -0.025546921 0.07055305 0.2826257 -0.016271763
-0.07183775 0.24356659 -0.05814727 -0.20606752 0.0120023005 0.14367004 -0.10575086 -0.1987454
-0.020361315 0.011787155 0.019920632 0.3283614 -0.0708084 0.16934262 0.029824244 0.05718496
0.025773376 0.2078206 -0.17432965 0.026517069 -0.024491394 -0.09099459 0.052018687 -0.117294416
-0.15906127 -0.120599225 0.24119163 -0.068405256 -0.07452143 -0.038603783 -0.026620967 -0.064195685
0.16787001 0.042777974 0.26418346 -0.13154545 0.08403897 -0.095858544 -0.14627996 0.046482094
0.16639917 0.22714548 0.19736463 0.083634496 -0.049247604 0.17647812 0.035842236 -0.009986894
-0.11372856 0.11874698 -0.13225389 0.025406241 0.15192993 0.13414682 0.13318567 0.16276577
00000000: 2429 1fbe a013 f3bd a72b e2bd 5ef9 72bd
00000010: 1f25 5cbe 6841 0e3d a063 4ebd 1ad0 b53d
00000020: efdd ed3d f233 cb3d 0c9f ee3d 2acc 973e
00000030: 6af0 2c3e 6f86 24bd bf47 853e 68ad f6bd
00000040: 2cb0 873e ba7f 6d3e 9972 e33c 7e46 ac3d
00000050: 05ec dc3d aaa9 b6bd ce7b 44be 1f30 583e
00000060: 1ad7 23be faec 84bd f70b 763c 2e22 223e
00000070: a35c bfbd 6682 4ebe d1c6 6b3d 9f36 453e
00000080: a210 95bd e8c2 7dbe 86fd bfbb 9267 f43d
00000090: 573e 00bd 61c5 0d3e cf06 ccbd 700d 243c
000000a0: 8e63 053e 9115 10be fc3d 5b3e 6ad0 1c3e
000000b0: 66df 7a3e 0233 913c 49f6 463d e06c 0d3d
000000c0: b652 163c 611b 723d 0c12 d53b f66a 4a3e
000000d0: 8ac0 64be 6901 983d 638b 873c 2679 62bd
000000e0: 666f e23d e5ce 033d 12f1 a0be c86a 3bbe
000000f0: 032f b83d 1373 3c3e 9fc0 77bb ed54 6c3e
00000100: c2ea dabd 08c0 333d 457d 9d3e 34a5 2f3c
00000110: 5656 8cbe 2afd 8d3e 28d2 143e 15a2 edbd
00000120: 98a9 6fbd 9016 c8bd a9d6 303e 0d82 a9be
00000130: de6c 84bc ef5d c33d 7f76 fc3d 32d5 fd3d
00000140: 1382 61bd 6875 f83d 275c 29be 3bf5 e6bc
00000150: 5532 d3bd 96bb 99be f6c7 81be 24ca 153e
00000160: 41a4 03be f493 5c3d 62ff 7e3d 9bb1 28be
00000170: f258 26be ef8b f0bc 7c1d d4bc 3215 b5bd
00000180: d5ca 263a 7baa 08be 2ce4 53bd ef3f b43e
00000190: ae5f 303e 619f dd3d d48f 09be 7d23 f5bc
000001a0: 5a90 a53d aaca 353e 01ed 5dbe fe2d 59be
000001b0: 826a 0a3d d47e 753e 0c7d 483e dd19 953d
000001c0: d71b 913d 117c 05be 7ed9 1abe 6e51 183e
000001d0: a94b bf3c e6a6 593e 8c94 49bd e354 09be
000001e0: e9f4 1e3e bc9a ccbb 6bcc ccbd 9b8e 1a3d
000001f0: 6007 a23d 5085 80be 5fe2 54be fc9f 75be
00000200: 1e8c 733e 2437 6b3d e7dd a03d e192 1bbe
00000210: b106 b93a 5771 0abe 28c5 873e d7af b1ba
00000220: fa68 173e 9c1c 683d 877c e4bd 007e ea3d
00000230: 4ce9 89bd 2ca1 a13d 6954 84be 77d9 2abd
00000240: 714c b8bd b0a7 4abd d863 5ebe cceb 523a
00000250: a614 92be 7876 f5bc 2ac6 9cbe ebb6 ae3e
00000260: b3f3 3e3c d457 643e 1ad4 2d3e 6ad1 9bbc
00000270: aa64 40bd 0796 043e dbf1 8e3d 8aff 833c
00000280: 15ab 90bd 45a3 78be 3311 573e 0809 70bb
00000290: def9 82bd 3264 573d 6a0c 983d bc7e 05be
000002a0: 5737 323b 56e7 623e d088 05be 4cdc cb3d
000002b0: fca5 47be 3c32 cfbb c627 f53a 6ff7 103d
000002c0: 42df 9d3d bb03 673d 78a7 5cbd 625f f13d
000002d0: 74e9 efb9 dde4 81bb b10b 12be 7125 a2bd
000002e0: 5cc3 523e 32e1 b2bd 1ec0 4cbd 17d4 bdbc
000002f0: 584b 7ebc ee3e eabd 5a7e fa3d bac8 213e
00000300: c6fd 35bd 38c5 91bb 6993 b6bd fa8c ddbc
00000310: c747 d1bc 1e7e 903d 51b4 903e 5c4c 85bc
00000320: ac1f 93bd 8569 793e d52b 6ebd 5d03 53be
00000330: 4ca5 443c 3d1e 133e e893 d8bd ea83 4bbe
00000340: c6cc a6bc e91e 413c 9830 a33c fc1e a83e
00000350: ff03 91bd 2768 2d3e f951 f43c c73a 6a3d
00000360: b022 d33c ecce 543e 7983 32be 533a d93c
00000370: 2da2 c8bc 5f5b babd 8c11 553d 0e38 f0bd
00000380: f5e0 22be bafc f6bd f0fa 763e 0e18 8cbd
00000390: b19e 98bd 001f 1ebd 3714 dabc 0779 83bd
000003a0: 1ee6 2b3e f537 2f3d 0e43 873e dab3 06be
000003b0: a01c ac3d 7c51 c4bd 6aca 15be 0264 3e3d
000003c0: 8b64 2a3e d398 683e f419 4a3e 9048 ab3d
000003d0: dbb7 49bd aeb6 343e 4fcf 123d 12a0 23bc
000003e0: 85ea e8bd 9e31 f33d 906d 07be c020 d03c
000003f0: 8593 1b3e c95d 093e d361 083e 12ac 263e

fc3.bias f4 [10]
-0.31272572 -0.16052756 -0.19245623 0.07109758 0.13296282 -0.00016852006 0.32842937 -0.13606219
-0.09274512 0.13413374
00000000: 961d a0be 5661 24be 3f13 45be 9c9b 913d
00000010: 6827 083e c2b4 30b9 e527 a83e e353 0bbe
00000020: 27f1 bdbd 5b5a 093e
