rotate/mnist_net.pth (torch, 181193 bytes, 10 tensors)

conv1.weight f4 [6, 1, 5, 5]
000000 7c 7d d1 3d da f3 76 3e bc 6e d4 bc 4c f5 6e bc
       0.10229012 0.2411646 -0.025931709 -0.0145848505
000010 4f 74 63 be be e1 d6 bd de ce e0 3d c9 24 27 be
       -0.22212337 -0.10492276 0.10976957 -0.16322626
000020 ee 0a 9e bb 73 0b 18 3e fc 23 4d 3e fa 3a 52 be
       -0.0048230803 0.14848118 0.20033258 -0.2053031
000030 35 37 5d bc 21 b8 b7 3c df 24 23 3e 23 cd b3 bd
       -0.013501932 0.022426667 0.15932034 -0.08779361
000040 d6 52 19 be 5c 2a 6d be c3 80 49 3e 0e 64 31 3c
       -0.14973006 -0.2316069 0.19678025 0.010827078
000050 8f d5 b7 3d 33 f9 ea bd c6 9a a6 bb 8c fe 70 3e
       0.0897628 -0.11473312 -0.0050843684 0.23534602
000060 ca e5 2f be 47 b9 c0 be 5b 6b de be 8d 48 d7 bd
       -0.17177501 -0.37641355 -0.4344128 -0.10511885
000070 12 a5 e3 3d 11 b1 69 3e 24 fd 72 be 5b 29 a3 be
       0.11115469 0.22821452 -0.23729378 -0.3186749
000080 ad e5 24 be fd e0 90 3d d5 91 c0 3e 34 0d a3 be
       -0.1610324 0.07074163 0.3761126 -0.3184601
000090 87 53 80 3d 9d 6d 54 bc 0d 87 27 3f 43 cc 1a 3f
       0.062659316 -0.012965587 0.65440446 0.6046793
0000a0 74 f5 a4 bd cf e0 80 3e 93 e8 0e 3f ef be 3b 3f
       -0.08054629 0.25171515 0.5582363 0.73338217
0000b0 ea 3e 72 3e 29 0c 2a 3c 67 eb 1b 3d c7 af 01 3f
       0.23656812 0.010378876 0.038066294 0.5065884
0000c0 fa 25 ab 3e 3b cf 8c be d6 5d 87 be eb 93 b0 be
       0.3342741 -0.27501854 -0.2643878 -0.34487852
0000d0 02 bf 5d be c4 62 91 be 86 95 01 be 10 5b 9a 3b
       -0.21654895 -0.28395665 -0.12654695 0.0047105625
0000e0 ed 7a 8b be 56 37 2d be 73 e5 82 bc 6c 26 14 3d
       -0.27242222 -0.1691564 -0.01597855 0.036169454
0000f0 b5 03 a3 bd 48 ed 76 bc 4c 6f 2a 3d 09 00 0c be
       -0.079596914 -0.015071221 0.041610047 -0.13671888
000100 e4 07 d7 bd dd 36 f0 3e bf ec aa 3e 9d 92 08 3f
       -0.10499552 0.46916857 0.33383748 0.53348714
000110 63 38 49 3d 3e 5a bf 3d 14 35 a8 3e c4 fc 19 3f
       0.04912604 0.09343384 0.32852995 0.60151315
000120 1d 4c c7 3e 78 16 a5 3e 66 99 d7 bd 2a 31 ce bd
       0.38925257 0.32243705 -0.10527305 -0.10067971
000130 8b b8 27 be e6 bd 0a 3d 87 2a 02 be e8 0c eb bd
       -0.16378991 0.033872508 -0.12711535 -0.11477071
000140 ff c6 e8 bd ae c0 86 be 0c a8 9a be 6d f0 27 be
       -0.113660805 -0.26318878 -0.30206335 -0.16400309
000150 5e dd 66 be 18 ea 6d be 72 f4 d6 3c c3 38 1f be
       -0.22545382 -0.23233831 0.026239607 -0.15548997
000160 e3 21 88 be 33 8d 6b be 31 46 65 be d4 a4 81 be
       -0.26588354 -0.23003082 -0.22390057 -0.25321066
000170 02 b0 66 bd fd 54 28 be c9 4b 2c 3c 41 35 2d 3e
       -0.056320198 -0.1643867 0.010516115 0.16914846
000180 23 45 11 be 2f 4a bc bd aa 50 84 bc 98 63 57 3e
       -0.1418653 -0.09193837 -0.016151745 0.21034086
000190 82 37 7f 3e 88 bf 80 3e 0c aa b1 bd 0d 85 19 bd
       0.24923518 0.25146127 -0.08675012 -0.037480403
0001a0 85 d0 b2 be 74 af 93 3e a7 e4 73 3e 11 79 ae 3e
       -0.34924713 0.28844798 0.23817693 0.3407674
0001b0 38 44 23 bd b3 84 bb bd e1 43 c1 bd 53 38 34 3f
       -0.03985998 -0.0915617 -0.09436775 0.70398444
0001c0 0f 21 25 3f 5e 02 16 3d e5 a7 df bc c7 77 d5 be
       0.6450357 0.03662335 -0.027301738 -0.41692945
0001d0 91 2d 9a 3e b6 ab d5 3e 69 d0 c0 3e 4f 28 16 3e
       0.3011289 0.41732568 0.37659004 0.14663814
0001e0 11 7a d4 be 14 e4 a5 be 33 30 08 3e 0a 04 c7 bc
       -0.4149938 -0.32400572 0.13299637 -0.024293918
0001f0 3a 12 0d 3e 0c c2 11 be 52 29 9d bd ce 51 a1 3d
       0.13776484 -0.1423418 -0.07673897 0.07876931
000200 29 11 84 bd 40 cc 95 3c d7 19 1a be c1 e6 25 be
       -0.064485855 0.01828587 -0.1504892 -0.16201307
000210 27 8d e3 bd 56 38 b0 be 36 5b 96 be 71 4e 75 3e
       -0.11110907 -0.3441798 -0.29366463 0.23955704
000220 c2 15 bb bd 2f b2 1e 3d 7a 31 1f be 01 91 93 be
       -0.09135009 0.038744148 -0.15546218 -0.28821567
000230 d6 c4 9c 3e 1b b7 31 3e e5 f7 4d bd ad 9d 3f be
       0.30618924 0.17355005 -0.05028524 -0.18712492
000240 f0 cb 5c be e3 b8 7b 3d 5d f6 7c 3e f2 e6 78 3e
       -0.21562171 0.06145562 0.24703355 0.24306849
000250 17 d3 70 3c 0b fd 78 bd
       0.014698765 -0.060788196

conv1.bias f4 [6]
000000 1b 83 31 3c 9c 48 cd bd ad 19 a6 3c eb 42 30 3f
       0.010834481 -0.10023615 0.020275915 0.6885211
000010 1a 46 22 be f8 64 8f 3e
       -0.15847054 0.2800672

conv2.weight f4 [16, 6, 5, 5]
000000 cb ac ab bb b9 f0 c5 bb e1 82 a0 bd ea 2b da bd
       -0.0052391044 -0.0060406593 -0.07837463 -0.10652907
000010 80 f1 bf 3c b3 54 2f bc 89 12 56 3d a3 46 ee bb
       0.023430586 -0.010701346 0.05226377 -0.007271604
000020 07 7b 2e bd a9 d0 77 3d 00 d9 1c 3d ef 8e 29 3d
       -0.042597797 0.06050173 0.038292885 0.041396078
000030 a9 0d 80 bd 52 1a 1a 3d e4 75 5d 3d 58 72 da bb
       -0.062526055 0.037622757 0.054067507 -0.006666463
000040 39 15 e0 bb 3a 42 4e 3d 39 91 07 3e 5d 3f 55 3b
       -0.0068384674 0.050356127 0.13238992 0.0032538988
000050 60 c2 01 3c 8a c6 22 3c 9d 20 b3 bc 79 db bd b9
       0.007919878 0.009935031 -0.021866137 -0.0003621241
000060 7e 5c f1 3b 71 87 37 be 87 06 84 be 43 ae 75 be
       0.0073657623 -0.1792276 -0.2578623 -0.23992257
000070 a6 5c ab 3a 90 51 0d 3d 41 ab a0 be 88 de a9 bd
       0.0013073876 0.034501612 -0.31380656 -0.082943976
000080 62 9a a4 3e dd c2 a6 3e 42 65 e1 3d f0 b8 0c be
       0.32149035 0.32570544 0.110056415 -0.13742423
000090 51 76 a4 3e 03 05 03 3f 89 d6 00 3d da 68 a9 be
       0.32121518 0.5117952 0.031454597 -0.33087808
0000a0 4e a6 ac 3d bf 0c eb 3e 96 a2 cf 3d a3 b4 af be
       0.084301576 0.45908162 0.10138433 -0.34317502
0000b0 1f 70 2e be b9 86 db 3c bb f7 3c 3d d6 96 3e be
       -0.17034958 0.02679764 0.04613469 -0.18612227
0000c0 c7 fd 7a be cf d3 10 3b db 0b 8a bd ac b1 52 bd
       -0.24510871 0.0022098904 -0.067405425 -0.051438972
0000d0 15 a5 09 bd b8 e5 13 bd 07 a6 63 ba 89 fa 9c bd
       -0.0336047 -0.03610775 -0.0008684103 -0.07664973
0000e0 bc d9 27 bc 89 53 5a 3e 5b dd 38 3e da 26 bf 3d
       -0.010244783 0.21320929 0.1805319 0.09333582
0000f0 88 23 47 be 0f 0a 88 3c c5 8f b3 3d 86 66 91 3d
       -0.19447148 0.016606359 0.08767656 0.07099633
000100 7e 79 62 be bc ab 04 be 3d f9 9c 3d fc 27 1b bb
       -0.22116658 -0.12956136 0.07664726 -0.0023674956
000110 cc cd 5d be 85 d8 97 bd 55 f8 c5 bd 20 0e d9 bd
       -0.21660537 -0.07414345 -0.09666506 -0.10598397
000120 86 d5 a0 bc a3 57 30 be d7 06 50 bd 64 93 c2 bc
       -0.019633066 -0.17220931 -0.050787773 -0.023751922
000130 0e 7b fc bc e5 c2 bc 3a 83 3d c5 3d 41 59 1a bd
       -0.030820396 0.0014401345 0.09630873 -0.037682775
000140 d4 c1 86 3d 8f b0 e8 3d 23 8f 74 3d e7 51 f6 bc
       0.065799385 0.11361801 0.05970682 -0.030068351
000150 71 4b 64 bd de ae b7 3d e7 6a 85 3c ac 8f 39 3d
       -0.05573601 0.089689 0.016286327 0.04530303
000160 f3 bf 02 be ef 0f e9 bc e8 bf a9 3c 38 e9 0b 3d
       -0.12768535 -0.02844998 0.02072139 0.03415796
000170 82 f8 a3 bd be 84 2d bd 65 0e 57 3d 7c 5f 75 3d
       -0.080063835 -0.04236292 0.052503962 0.059905514
000180 bd 32 88 bd 08 0c 2e bd 7a 00 7e 3d b2 f3 41 3d
       -0.066503026 -0.042491943 0.062012173 0.047351547
000190 4b 32 d0 bd f0 c9 95 bd 5a 43 87 bd cd ba 30 be
       -0.101658426 -0.07313907 -0.06604643 -0.17258759
0001a0 b9 a0 d9 bd f9 a5 0c be 95 ad 18 be ed 43 f2 bd
       -0.106263585 -0.13735189 -0.14909966 -0.11829362
0001b0 d9 b1 d9 bd 75 be 04 3c 09 4d 5b be 0a 84 cd bd
       -0.10629625 0.008102049 -0.21416105 -0.1003495
0001c0 35 9e 83 bb ca 6f 11 3d 86 c0 01 be 5e 9f f4 bd
       -0.0040166625 0.035507 -0.12671098 -0.119444594
0001d0 9c b0 b8 bd 40 48 09 3e 91 40 35 be ac 77 93 be
       -0.090180606 0.13406467 -0.17700411 -0.2880224
0001e0 f1 76 a5 bd 68 62 10 3e af f6 f1 3d 11 d8 d5 bd
       -0.08079327 0.14100039 0.11814629 -0.10441602
0001f0 b6 ad 33 be b5 78 8f 3d 0f 5c 8c bd f3 a6 0c bd
       -0.17546734 0.07005445 -0.06853496 -0.034338903
000200 e1 86 7e bd d3 d9 a5 3c 4e 21 59 3d 95 fc df bd
       -0.06214035 0.020245468 0.053010277 -0.10936848
000210 7f 67 c7 bc fa a3 df 3c 3d ad 69 3c d8 40 75 bd
       -0.024341343 0.02729987 0.014262495 -0.059876293
000220 37 dd 10 be da 62 d1 bc b8 fe 1b 3d 2a f5 8b 3c
       -0.14146887 -0.025559831 0.038084716 0.017084677
000230 79 cb 05 bb c6 7a d2 bd b0 08 28 3d 6b c9 9e bd
       -0.0020415469 -0.102773234 0.04102391 -0.07753261
000240 2b 20 16 bd 6a d9 8c bd e6 bf 79 bd ad 78 00 3e
       -0.03665177 -0.06877406 -0.060974024 0.12546034
000250 4d ba 04 be e9 d3 94 37 ac aa 87 bd a7 c9 72 bd
       -0.12961693 1.7741653e-05 -0.0662435 -0.059274342
000260 b8 73 a6 bd f3 39 56 3d b2 c4 1c bd bb e9 0f bd
       -0.0812754 0.05230136 -0.03827352 -0.035135012
000270 0a 1e 8f bc 04 2e 41 3c 6f 70 a8 bd 93 f7 36 3d
       -0.017470378 0.011790756 -0.0822457 0.0446697
000280 f9 5a 1a bd bc 6e ac bb b2 ad c4 bd 5d 29 bc bc
       -0.037684415 -0.005262224 -0.09603442 -0.022968942
000290 6c 64 73 bd d7 7b 0e bd 97 b6 1e bd f0 25 9f bb
       -0.05942194 -0.03478607 -0.03874835 -0.0048568174
0002a0 d1 81 4d bd 9d f9 41 bd 95 df 84 3d dc 79 ab bd
       -0.05017263 -0.04735719 0.064879574 -0.08372852
0002b0 ac 02 07 3d 08 4f 2b bd 99 5f 17 bd ba b3 a6 3d
       0.032961532 -0.041823417 -0.036956403 0.08139749
0002c0 1b 0e 9d 3e fc 36 ac 3e f1 cc 9d bc 23 21 4f be
       0.30674824 0.336357 -0.019262763 -0.20227484
0002d0 fc 06 92 3d e2 47 89 3e 7f e2 2d 3e 6b ff 0b be
       0.071302384 0.26812655 0.16980933 -0.13671653
0002e0 f3 92 15 be 4c 41 0c bd fd 64 23 3e 84 e6 1e 3e
       -0.14606838 -0.03424196 0.15956493 0.15517622
0002f0 30 db a0 be 08 0b 73 bd 05 8c 95 3c 04 7b 24 3e
       -0.31417227 -0.059336692 0.018255243 0.16062552
000300 38 60 0f be cc 3b 89 be c5 96 6d 3c 57 c5 5f bd
       -0.14001548 -0.26803434 0.014501278 -0.054631557
000310 9d 1c 00 bd 43 c4 01 be 24 eb 7b be d1 c1 14 be
       -0.031277288 -0.12672524 -0.24601418 -0.1452706
000320 18 72 46 3d 06 30 16 3e fd d0 b1 3d ba 0a 80 3d
       0.048448652 0.14666757 0.086824395 0.06252046
000330 9f 56 33 be 99 72 e1 bd e2 d9 51 bb 59 a8 fb 3c
       -0.17513512 -0.11008186 -0.0032020737 0.030719923
000340 11 1d 96 bc 28 6d 52 be 34 eb 2b bd ce f3 14 bd
       -0.018324407 -0.20549452 -0.041972354 -0.036365323
000350 57 fe b3 3d b4 dc d9 bd 66 e7 73 be a2 51 21 bd
       0.08788746 -0.10637799 -0.2381874 -0.03938449
000360 e4 da 8d 3d 9e 99 f2 bd 1a 56 2c be 71 cf 16 be
       0.06926516 -0.118457064 -0.1682972 -0.1472757
000370 46 e2 26 be 50 b4 de bc ad 2c df bd 2c 64 ea bd
       -0.16297254 -0.02718559 -0.10897193 -0.114448875
000380 f7 b5 61 be f6 c7 57 bd a1 df 55 bd ec 1f 29 bc
       -0.2204207 -0.052680932 -0.052215222 -0.010322552
000390 24 9d a2 bd cd 30 3a bd 2c b2 fd 3c 8d 88 98 bd
       -0.079401284 -0.045456696 0.030968748 -0.0744792
0003a0 a1 6a ad bd c7 a8 5d bc ad 51 1b bd f5 e7 49 bd
       -0.084676035 -0.013529009 -0.03791969 -0.049293477
0003b0 d8 78 da bc 3f 38 e5 bd 8d 7d 7e 3b a6 fa 56 bc
       -0.02666895 -0.11192369 0.0038832158 -0.013121283
0003c0 cc 51 35 bd 02 4d f4 bc 76 ac 11 bd b9 7b 79 bd
       -0.04426746 -0.029821876 -0.035564862 -0.060909007
0003d0 f9 ca b2 bd 90 70 05 3d 30 12 3b 3d 9e c7 8c bd
       -0.0873012 0.03257805 0.04567164 -0.068740115
0003e0 a4 d1 91 bd 3d 91 04 3d 83 23 80 bd bd 68 a3 bb
       -0.07120064 0.032365073 -0.06256773 -0.004986851
0003f0 fa d8 9b 3d db 5c 2f 3e 02 3f 82 3d 78 bf c9 bd
       0.07609744 0.17125265 0.06359674 -0.09850973

conv2.bias f4 [16]
000000 d0 40 9b bd 86 99 aa bb 6c ca 8c bd 69 ba 3e be
       -0.075807214 -0.0052062897 -0.068745464 -0.18625797
000010 ff ca 2b 3d bf 60 17 be 64 0e a9 3d 13 4b 52 bd
       0.04194164 -0.14783 0.08254698 -0.051341128
000020 8b 87 ca 3d 4d ca c6 3c 51 af 5f be 89 3e 86 bd
       0.09889134 0.024266386 -0.21844222 -0.065548964
000030 0b 2d 9e bc 7d ad 35 be eb 4e fd 3c 82 21 24 bd
       -0.019308588 -0.17741962 0.03092142 -0.040071018

fc1.weight f4 [120, 256]
000000 1f 74 bc 3a 0a 29 b0 bd 69 96 ed 3c 23 e4 e0 3b
       0.0014377869 -0.086015776 0.029002385 0.0068631335
000010 d3 48 81 ba 9a a5 9f ba 7c 26 6a 3c 4b 5d 7d 3d
       -0.0009863622 -0.001218009 0.014291402 0.06185655
000020 d9 5b 07 bc 80 2a 97 3d cc 06 8f 3d 07 e3 33 3e
       -0.008261644 0.07381153 0.06983718 0.17567073
000030 0e cf 14 bc 4b c8 18 3d 7f c0 b4 bc 4d a2 ce 3b
       -0.009082569 0.03730039 -0.022064446 0.006305969
000040 80 4d 5f 3d 0d 0b 13 3e 22 ad ba 3d 98 bf 30 3c
       0.05451727 0.14359684 0.09115054 0.010787867
000050 8f 14 a3 3d 05 f1 a0 3c 9f 5b a6 3d a5 95 e2 3c
       0.079629056 0.019646177 0.08122944 0.027659247
000060 3c 70 e5 3d 9d ef e7 3c 02 6c 75 bb 56 66 bb bd
       0.11203048 0.028312499 -0.003744841 -0.091503784
000070 f5 06 a3 3c 8b 26 b1 ba da c6 03 3a fc ff a6 bd
       0.019900778 -0.0013515515 0.00050268846 -0.08154294
000080 15 2b 31 3d e1 b9 e3 3a f3 05 44 bc 7b 77 10 bd
       0.043253977 0.0017374122 -0.011964309 -0.035270195
000090 71 a0 17 bd 8a 77 83 3b 19 a5 aa bc 9b 3e 53 bd
       -0.037018243 0.004012053 -0.020830678 -0.051573377
0000a0 c7 0b 98 3c 7b e9 4b bd 34 0d 85 3c e2 8a 9a bc
       0.018560303 -0.04978321 0.016241647 -0.018865053
0000b0 1d 70 33 3d 4b 67 87 3b 7e 34 ee 3c 98 83 16 bd
       0.04380809 0.0041321865 0.029077765 -0.03674659
0000c0 64 7b 80 3d c1 af ab 3c 39 4a 3f bd cd dc 08 3d
       0.06273535 0.02095783 -0.046701644 0.033413697
0000d0 a5 46 b2 3d e3 61 0c 3c 66 47 a8 bd 5e 81 04 be
       0.087048806 0.00856826 -0.08216743 -0.12939975
0000e0 9c 92 cc bc 9e 32 a6 bd 99 68 92 3d 38 97 0d bd
       -0.024972253 -0.08115123 0.07148857 -0.03456804
0000f0 b5 9c 38 3c 14 1e 93 3c c8 63 75 3d 08 0a f3 3c
       0.011267831 0.017958678 0.059909612 0.02966787
000100 79 49 78 3d 08 0a a7 3b 5f 24 e4 3b 67 b8 4a bc
       0.060616944 0.0050976314 0.0069623436 -0.0123730665
000110 46 63 b0 3d 2a da 59 3d 06 2d 07 3d c1 f9 de ba
       0.08612685 0.053186573 0.033001922 -0.0017011688
000120 ee ca 03 3e 95 8d 1c 3b 45 d2 ed bc 91 70 5a bc
       0.1287038 0.00238881 -0.029030928 -0.013332502
000130 fc 5c c3 3c 6c 24 4e 3d 27 6f 05 bc 55 bb 06 bd
       0.02384805 0.050327703 -0.008144177 -0.032893497
000140 cd 1b 7e bd 6b d3 5b bd 25 64 61 bc 7f 83 3d bd
       -0.06203823 -0.05366842 -0.0137567865 -0.046267983
000150 c3 c4 bb bc 57 90 f2 bc 9a 80 ab bd e9 2e 78 3c
       -0.022920972 -0.029609842 -0.08374138 0.015147903
000160 0b 3c 1a bd 8a 29 00 bd 12 ab 32 3d 49 c8 32 3c
       -0.037654918 -0.031289615 0.043620177 0.0109120095
000170 9b 84 c8 3b fd 7a 71 3c 56 dd 3a bc ed a7 3e bc
       0.0061193234 0.014738795 -0.01140531 -0.011636716
000180 bb f4 20 3c 77 84 32 bd 63 df b5 bd e6 33 98 bd
       0.009823973 -0.04358336 -0.08880498 -0.07431774
000190 22 b6 c7 3c 39 e8 88 3d d1 5f 06 3d 5d 7c 61 bd
       0.02437884 0.06684918 0.03280622 -0.055050243
0001a0 72 21 26 3d 13 d7 a9 3d 68 6d 9d 3d 4e 0d 3b bc
       0.04055924 0.08292975 0.07686883 -0.011416746
0001b0 f6 a3 d3 3d a1 a8 b1 3d 3d 43 dd 3d 93 56 39 3d
       0.103340074 0.086747415 0.1080384 0.04524858
0001c0 a6 8a 83 3c bd 92 60 3d 4f c6 8e bc 12 57 fa bc
       0.016057324 0.05482744 -0.017428545 -0.030559096
0001d0 5b 7e 4f bd b6 87 0f 3d 55 6f 45 3d e8 84 e3 bc
       -0.05065761 0.035041533 0.048201878 -0.027773336
0001e0 34 ee bb 3b cd 79 40 bd 1f ab 6f bc 0a d5 8f 3d
       0.005735183 -0.04699116 -0.014628201 0.07023056
0001f0 78 10 cf bb 4c c3 2b 3d c5 6d e9 bc 1b 1c 55 3c
       -0.006319102 0.041934296 -0.028494725 0.013007189
000200 61 78 86 3c 48 5b ca 3b e0 09 d1 3c 5f 2f d9 3c
       0.016414823 0.0061754324 0.025517404 0.026511846
000210 3f 7b ca bb 11 16 f9 3d 67 c0 ac 3d 19 15 81 3d
       -0.006179243 0.12162412 0.08435135 0.06302852
000220 36 b1 73 3c e4 49 1e 3d c1 b5 91 3d c2 3b 88 3d
       0.014873793 0.038644686 0.07114745 0.06652023
000230 e9 a5 f7 3b 72 81 8d bb bc 53 82 3d c5 f6 71 bc
       0.00755762 -0.0043184096 0.06363627 -0.014768307
000240 8f 06 97 bc 74 63 c8 bd 76 37 cf bd e7 bc c5 bd
       -0.018435745 -0.09784594 -0.10118 -0.09655171
000250 6e c7 5a bc 10 ae 0e 3d aa 2f 56 3d 23 a8 b6 bd
       -0.013353212 0.034833968 0.05229155 -0.08918788
000260 34 9f 02 bb ea 4b 72 3d c7 db f8 3c b9 ae b5 3b
       -0.0019931318 0.05915443 0.030378236 0.00554451
000270 78 69 50 3d 9b 14 60 3d 24 29 ac 3c a8 b7 a2 3d
       0.050881833 0.05470715 0.021015711 0.07945186
000280 2e 19 e0 3a a1 81 9f 3d f5 06 c6 3c 84 2b 41 3d
       0.0017097348 0.077883966 0.02417324 0.04716064
000290 12 54 72 bc e7 a4 bb bc bc f7 a7 bd 68 79 31 3c
       -0.014790552 -0.02290578 -0.082015485 0.010832168
0002a0 d4 81 3f bd c0 c7 ee 3c 3c 57 92 3d 72 cb 2a 3d
       -0.046754673 0.029147983 0.07145545 0.041697927
0002b0 9a 75 db bd 9c 91 5a 3c 4b 32 88 bc be 36 6b 3b
       -0.1071579 0.01334038 -0.016625544 0.0035890783
0002c0 37 9a 79 3d 2f 56 9f 3c f3 dd e1 3b d9 cf 86 3d
       0.060938086 0.019450275 0.0068929135 0.065826125
0002d0 c8 97 48 3d 79 c9 74 3d da a3 7c bd ee bc f9 bd
       0.048972875 0.05976245 -0.0616797 -0.121942386
0002e0 38 10 f0 bc 38 26 80 3c c7 9c 3d bc 13 56 e0 bd
       -0.029304609 0.015643224 -0.011573023 -0.10953917
0002f0 9f fd 1b 3d 61 ef 81 3d 59 1f a9 ba a4 2d 29 3d
       0.03808367 0.06344486 -0.0012903019 0.041303292
000300 72 48 5c bd 4b 30 76 3d 2f c2 8d bd 04 ce 6f bc
       -0.053780027 0.06010465 -0.06921803 -0.01463652
000310 26 14 21 bd a0 11 65 3d 7c 0d 29 bd 1f 24 93 bd
       -0.039325856 0.05592501 -0.041272625 -0.07184624
000320 ea a0 0b 3d af d5 8a 3d 7a 42 13 3d 79 f1 c6 3d
       0.034089006 0.06779038 0.03595207 0.09714026
000330 9f 1f 1e bd 68 83 b8 3c 7d 19 7d 3b 40 45 7f 3d
       -0.038604375 0.022523597 0.0038619929 0.0623219
000340 fa 48 f6 bd 1a 28 06 be 4c 45 90 3d 2d 3a db 3d
       -0.12025638 -0.13101235 0.07044467 0.107044555
000350 cb 24 fc 3c 58 17 1e 3d 7c bd 58 bd 81 c0 60 3d
       0.030779263 0.03859648 -0.05291508 0.054871086
000360 48 97 b4 bc ec a0 e2 3d 93 9b 99 bc 01 d6 cb ba
       -0.022044793 0.1106585 -0.018750941 -0.0015551449
000370 cf df 70 bd 0a 09 a8 3c 5d 35 cb 3c 2d 00 6e 3d
       -0.05880719 0.020512123 0.024805719 0.058105636
000380 1e cb 70 3c 59 7a a8 3d e0 02 5d 3d ef 9a f2 3b
       0.014696864 0.08226461 0.05395782 0.0074037234
000390 b2 ed 13 3d 9d e0 4a 3d 62 48 d8 3b 75 9b c6 3c
       0.036115356 0.049530614 0.0066004256 0.02424405
0003a0 d8 91 19 bd 0a 96 99 3c 2f 75 0f bd 8c 56 97 3c
       -0.037492603 0.018748302 -0.035023864 0.018473886
0003b0 9f f3 a9 3d f1 e7 ec 3b 90 ef 9c 3a e8 c8 1b bc
       0.0829842 0.007229798 0.0011973251 -0.009508349
0003c0 b0 14 31 3d 52 1f a9 bd 24 ec 97 bd e6 21 1f 3d
       0.04323262 -0.08257927 -0.07418087 0.038850687
0003d0 98 8b ff 3c 5f a0 5d bd b7 73 8c bd 5b d0 2f bd
       0.031194493 -0.05410802 -0.06858008 -0.042923313
0003e0 20 c5 89 bd 6b 95 99 3d 99 c7 92 bd 04 d6 64 bc
       -0.06727052 0.07499202 -0.071669765 -0.013967041
0003f0 c4 cb 3f bc a5 03 26 3d 4b 93 47 bc f9 2d ac bd
       -0.011706296 0.04053082 -0.0121811135 -0.08407206

fc1.bias f4 [120]
000000 3b ad c8 bb a6 7b 28 bb 78 34 7f 3d 20 cf 48 bc
       -0.0061241663 -0.0025708466 0.062305897 -0.012256414
000010 6c e3 ad bb f6 1f 8a 3c d8 ed 79 3d e7 e1 d7 bc
       -0.005306652 0.016860943 0.06101784 -0.026352836
000020 2d 5c 63 bc bd 9d b2 bb a1 2d ea 3b b2 13 26 bd
       -0.013876957 -0.005450933 0.0071465527 -0.040546127
000030 d3 f6 2d bd 50 c9 46 b9 12 15 c6 3c ca de 36 bd
       -0.042471718 -0.00018957746 0.024179969 -0.044646062
000040 2a 7f 83 bd ef c3 ae 3d b5 dc bc 3d 66 11 94 3d
       -0.06420739 0.08533465 0.09221784 0.07229881
000050 1d 7b 40 bd 89 72 83 3c d9 a4 33 3d 89 5c 03 bd
       -0.04699241 0.016045826 0.043858383 -0.03207067
000060 2e 69 4e 3d ba d1 3c bd 4f 2e 6c bd ec a0 0a 3d
       0.050393276 -0.04609845 -0.05766135 0.033844873
000070 d1 f9 eb 3c e1 30 c2 bc 0d d4 be bc 99 dd 8a bc
       0.028805645 -0.023704948 -0.023294473 -0.01695137
000080 b2 fc 20 bd d7 79 92 3b b2 0e 36 3c 17 d3 d0 3d
       -0.03930349 0.004470091 0.011111902 0.10196512
000090 6c 8b 05 3d 71 79 99 bc 0b 3b 1c 3b 0c 69 af 3d
       0.032603666 -0.018734666 0.0023838903 0.08564958
0000a0 51 cb da 3c 17 d4 84 3c db 77 ac bc a5 95 04 3d
       0.026708277 0.016214414 -0.021053245 0.032369275
0000b0 b2 dc 09 3d 03 0a 08 bd 2d 8e 2f bb a1 3d 12 bd
       0.033657737 -0.033212673 -0.0026787624 -0.035703305
0000c0 da 16 61 3c 6a a2 5e 3d f8 2a 19 bd 86 58 27 bd
       0.013738358 0.05435411 -0.037394494 -0.040855907
0000d0 ad 71 4d 3c c1 7a c1 bc 2b 45 d1 bc 8e 60 75 3b
       0.012539309 -0.023618104 -0.025545677 0.0037441584
0000e0 64 45 13 bb 8c 22 b9 bd 76 5c ac 3c d7 b7 c2 bd
       -0.002247178 -0.090397924 0.021040183 -0.09507721
0000f0 87 75 72 bd 0f 49 24 bd d5 5b c5 bc 1e 72 ea 3c
       -0.059194114 -0.040108737 -0.02409164 0.028618868
000100 fb 11 65 bd 00 f6 3b 3d d5 95 81 3d ab 5d 3a bc
       -0.05592535 0.0458889 0.06327406 -0.011374871
000110 62 6d 2b bd 4a 7d 71 bd 54 e2 85 3d 91 b5 88 3c
       -0.041852362 -0.058957376 0.06537309 0.01668814
000120 4f 46 0c bd 85 fc c5 bc 53 0c 7e bc 10 db dc 3c
       -0.03424674 -0.024168262 -0.015505868 0.026959926
000130 90 eb d1 bc d7 52 9a 3c 8a 7b 2a bd b9 ee 4f bd
       -0.02562502 0.01883833 -0.041621722 -0.050764773
000140 29 c3 7e 3d 36 5d 01 bd 78 b6 fe bc 02 cf 2c bd
       0.062197838 -0.031583034 -0.031092867 -0.042189606
000150 c8 27 f5 3b 3d 3d 57 3d 90 e5 d8 3c 46 f9 b2 3c
       0.007481549 0.052548636 0.026476651 0.021847378
000160 eb ee 08 bd ee 1b f7 3c 14 f1 20 3d 01 e1 96 bb
       -0.033430975 0.030164685 0.03929241 -0.0046044593
000170 70 29 29 bd 23 4f 9b 3d b6 d7 81 bd ca 09 a4 3c
       -0.041299284 0.075834535 -0.06339972 0.020024199
000180 d4 82 14 bc 91 73 4e bd c7 79 25 3d af 11 29 bc
       -0.009064395 -0.05040318 0.04039934 -0.0103191575
000190 35 bb 5b bd 75 04 17 3d 12 5a 26 bd cf 37 59 3c
       -0.05364533 0.036869485 -0.04061324 0.013257935
0001a0 eb 89 22 3c 8d 0b 2e 3d ca c3 a0 3c 21 cd 7f 39
       0.0099205775 0.042491484 0.01962461 0.00024395112
0001b0 ea a2 f3 bc d7 c8 5a 3b 29 25 cd bc 9c 22 26 bd
       -0.02974077 0.003338387 -0.025042133 -0.04056035
0001c0 9c 5f b3 bc 25 93 8a bd 95 62 7c bc 72 36 07 3d
       -0.021896176 -0.06766347 -0.015404363 0.033010907
0001d0 e4 ef 92 3d 89 28 ce bc a3 70 ea 3c 52 da 39 3d
       0.07174662 -0.025165813 0.028618162 0.045374222

fc2.weight f4 [84, 120]
000000 82 f8 b6 3c 60 c8 ae 3d 06 e1 76 bd 56 93 7b bd
       0.022335295 0.08534312 -0.060273193 -0.061419807
000010 c9 02 c2 bd ff 8b 4e bd d8 5e b7 bd 71 80 ce 3b
       -0.094731875 -0.05042648 -0.08953637 0.0063019325
000020 f5 ef 56 3b ed 1d f7 3d 45 e3 a5 bc 24 28 65 3d
       0.0032796834 0.12066255 -0.020249972 0.055946484
000030 78 37 60 3d a6 cf 80 bd 77 d6 01 3d f0 59 8d 3a
       0.0547404 -0.06289606 0.03169867 0.001078425
000040 ad 5b 11 3d 2d e3 d0 3c dd 20 99 3d 6c 9f e9 bc
       0.03548782 0.02549895 0.07476971 -0.028518401
000050 f3 a1 83 3d 33 f4 f3 3c 8f 11 64 bd 21 39 26 bd
       0.06427374 0.02977953 -0.055680808 -0.040581826
000060 cc e1 05 3d 9c ff 03 3d 0f ae 1e 3d e1 e2 f5 3c
       0.03268604 0.03222619 0.038740214 0.03001541
000070 94 dd a6 bd fb d3 4c 3d 47 ec 04 be b1 62 b1 bc
       -0.081477314 0.050006848 -0.12980758 -0.021653505
000080 cf df ca 3d 41 76 c4 3d 49 9f b5 bd 91 61 09 bd
       0.09905969 0.09592868 -0.08868272 -0.033540312
000090 01 e9 cb bc 4f fa ae 3a 4a 40 d8 bd ca cf 8b 3d
       -0.024891378 0.0013349744 -0.10559137 0.06826742
0000a0 bd a8 64 bd 53 12 c1 bd c0 b7 b2 bd 32 ed b1 bd
       -0.055824984 -0.09427323 -0.08726454 -0.086878195
0000b0 19 e3 3b bd 8d 90 75 3d da af 59 3c 89 0e c6 3d
       -0.045870874 0.059952307 0.013286555 0.09670741
0000c0 6f c9 70 bc 63 22 84 3d 9b 43 2b 3b 29 b9 76 3c
       -0.014696463 0.06451871 0.0026132825 0.015058794
0000d0 b4 15 b4 bd c3 f4 2b bd d6 17 b8 3d 77 3d f3 3d
       -0.08793202 -0.04198147 0.08988921 0.11876958
0000e0 3f ee 17 3d af dd d8 bd ab 3d 8c 3d 5a 4b bb bd
       0.037092444 -0.10589158 0.068477 -0.091452315
0000f0 ed 70 8b bd 4e 32 3b 3d 94 13 05 be 10 35 3c bc
       -0.06808648 0.04570227 -0.1299575 -0.01148726
000100 05 bd 8c bd 59 9a 9a bb c8 ff 0b 3d 16 60 a9 bd
       -0.0687199 -0.0047181067 0.03417948 -0.0827028
000110 6e 9c bf 3b 3a 9a 4d 3c 1c f1 07 3c e5 86 49 3c
       0.0058475053 0.0125489775 0.008297231 0.012300228
000120 87 10 47 3d c6 d4 be 3d c4 07 d2 bc 5c 72 89 3b
       0.048599746 0.09317927 -0.025638469 0.004194541
000130 2d ff 1d bd c2 98 b4 ba ce 3c 91 bd 4c 60 65 bd
       -0.038573433 -0.0013778436 -0.07091676 -0.05600004
000140 3d fc 18 bd e9 48 9d bd 02 bb 62 bd 14 0a cf 3c
       -0.03734993 -0.07679922 -0.055354126 0.02527336
000150 a1 d3 a1 bd 1f 0d e4 3c a6 d0 17 39 9e e3 bd 3d
       -0.07901693 0.027838288 0.0001447821 0.0927193
000160 b7 30 70 bd 06 d4 ee bc a5 e0 ab bc 7e 11 92 bd
       -0.058640208 -0.029153835 -0.020981142 -0.071322426
000170 4d f5 1e bd 2c 18 40 bd f3 e0 f4 bc e0 40 9d 3c
       -0.038808156 -0.046898052 -0.02989242 0.019195974
000180 17 50 1d 3d 30 59 08 be 3f 6b b2 bd 34 51 48 bd
       0.038406458 -0.13315272 -0.08711862 -0.048905566
000190 9a d5 5c 3d 93 5b b1 3d 8d 00 01 be 3d 99 a2 3d
       0.053914644 0.086600445 -0.12597866 0.07939384
0001a0 0a 42 6f 3d 4d 8a 4b bd 04 05 ae 3d 9e ec 2c bd
       0.05841259 -0.04969244 0.084970504 -0.042217843
0001b0 92 52 35 3d 16 3d 22 3d 53 6c 96 3d 76 48 87 3d
       0.0442682 0.039609037 0.0734488 0.06605618
0001c0 1b a6 92 bc c1 b1 6e 3e e3 b7 a7 bd 7f c3 14 3d
       -0.01790147 0.23309995 -0.081893705 0.036319252
0001d0 cc 72 73 bd 9e 6e a3 bd 8f 8e 6a 3d 3a 89 9a bd
       -0.05943565 -0.07980083 0.05726486 -0.07545705
0001e0 f4 9a b2 bd 44 c9 f1 bc 96 ac a9 3d 3c 35 6f bd
       -0.08720961 -0.029514916 0.08284871 -0.058400378
0001f0 df d5 10 3d 94 ef 8d bd 52 53 72 bd 54 92 68 bd
       0.035360213 -0.069304615 -0.05916149 -0.056780174
000200 1a 01 c1 bc 5c ae b4 bb 69 23 d3 bc 31 07 72 bd
       -0.023560096 -0.0055139493 -0.02577372 -0.05908889
000210 6c 4f 6b 3c ae b5 19 3d 1f 55 06 3b d7 c3 e2 bc
       0.014362197 0.03752678 0.0020497513 -0.027681274
000220 11 46 3b 3d 7e 6d 74 bd b5 77 1e bc c2 25 bc bd
       0.045721117 -0.059674732 -0.009672095 -0.09186889
000230 98 ee af 3c ad 57 43 3d 41 49 8f bd 2f 5b 5b 3d
       0.021476075 0.047691036 -0.06996394 0.053553756
000240 92 dd 00 bd 8f aa ee bc fc 9e 1a 3d 16 1f 52 bd
       -0.031461306 -0.029134063 0.037749276 -0.051299177
000250 3f 61 95 bd 21 22 3c bd 82 d6 09 bc 22 28 97 bd
       -0.07293939 -0.045930985 -0.008412959 -0.073807016
000260 2d 4a 92 3c 91 b4 1f bd 14 7a a9 bd 26 fe 0e 3c
       0.017857635 -0.03899056 -0.08275238 0.008727586
000270 b5 26 e2 bc 6a 08 8a bd 43 dd b0 bc 8d 2f 2b bd
       -0.027606348 -0.06739886 -0.02158988 -0.041793395
000280 08 cc 89 3d 34 da 32 bd c4 c6 98 3d a4 2f f0 bb
       0.06728369 -0.043665126 0.074597865 -0.007329898
000290 cc 75 23 3d 07 05 0a 3d 81 b8 18 3c a4 09 06 3d
       0.03990726 0.0336962 0.009321333 0.032724038
0002a0 36 d8 2f bd 26 ab 02 bd 94 3e 88 bd 70 ff 64 bd
       -0.042930804 -0.0319015 -0.06652561 -0.055907667
0002b0 33 87 7d bd 90 77 98 bd 3e bc 96 3b 39 b5 21 bd
       -0.061896514 -0.0744468 0.004600077 -0.039479468
0002c0 63 2a cb bc 7c 65 9e 3c b0 8f af 3d 30 f4 7a bd
       -0.024800485 0.0193355 0.08572328 -0.06126803
0002d0 10 09 63 3d 75 34 6b 3b 07 14 63 3c 9f bd c8 bd
       0.055428565 0.003588942 0.013859755 -0.09801792
0002e0 51 e5 0d bd 9e 28 33 bd b4 70 a0 bd 88 6f 17 bd
       -0.03464252 -0.043739907 -0.078339964 -0.0369716
0002f0 b8 0d 40 bd cc 91 fb bc 7a 0c 9a bd c0 0c 9d bc
       -0.046888083 -0.03070917 -0.07521911 -0.019171119
000300 08 b5 5b bc 33 dd ad bc aa 5c a3 bc 4f 62 48 bd
       -0.01340986 -0.02122364 -0.019941647 -0.04892188
000310 ca b6 3f 3d 53 f6 74 bc 3b 52 a0 3d 1a 33 90 bd
       0.04680518 -0.014951306 0.07828184 -0.07040997
000320 55 be 91 bd 4c 90 97 bd cc 0d 8c 3b 07 d8 5c 3d
       -0.07116381 -0.07400569 0.0042741057 0.053916957
000330 b0 ec 2c 3c 2c 0f 22 bd c0 be d9 3c 19 19 e0 3c
       0.010554478 -0.03956525 0.026580215 0.027355717
000340 6f dd 09 3d 21 5e e3 bb 7a 38 d4 bc bd d7 85 bd
       0.03365844 -0.0069387113 -0.025905836 -0.065352894
000350 d6 f9 f3 bc 4b 1e 34 bd 33 05 01 bc 64 8a f3 ba
       -0.029782217 -0.043974202 -0.007874775 -0.0018580672
000360 c9 e7 91 bd 54 53 7d 3d ba 12 a2 3c 49 d8 42 3d
       -0.07124288 0.061847046 0.01978432 0.047569547
000370 1a 75 1f bc d3 c7 69 bd 29 03 99 bd c7 40 3c bd
       -0.009732509 -0.057075333 -0.07471306 -0.045960214
000380 a9 48 99 bd cc 1b 41 bd 9b 74 5b 3d 3b 54 9c 3d
       -0.07484562 -0.04714565 0.053578 0.07633253
000390 0c 65 4c 3d c7 23 af 3d 27 15 95 bd 1e 58 0e 3a
       0.049901053 0.08551746 -0.07279425 0.00054300006
0003a0 98 21 81 3d 86 7b 76 bd 9f af b8 bd 51 40 08 bc
       0.063052356 -0.060176395 -0.09017872 -0.0083161155
0003b0 fc 08 9b bc ec 6f 11 3b 97 9d 4d 3d b3 56 78 3d
       -0.018925183 0.0022191955 0.050199118 0.060629558
0003c0 d7 3e 97 bd 03 3e a3 bd 78 e0 b2 bc 85 11 86 bd
       -0.073850326 -0.07970812 -0.02183555 -0.0654631
0003d0 ff 26 1a be 36 2e f3 3d 25 26 99 bd 2e 4b 6c bd
       -0.15053938 0.118740484 -0.074779786 -0.057688884
0003e0 97 75 e7 3d 02 4b a5 bd 6e b4 f2 bd 15 4f 4e 3b
       0.11301725 -0.08070947 -0.118508205 0.0031480242
0003f0 3f cf 16 be 64 46 f4 bc 44 f5 4c bc 68 21 1f 3e
       -0.14727496 -0.029818721 -0.012509648 0.15540087

fc2.bias f4 [84]
000000 0b b3 f6 bd a7 af 3a 3d 2c 35 aa 3d e6 78 22 bc
       -0.120458685 0.04557767 0.08310923 -0.00991652
000010 ff 81 ac bd 0d a1 59 3d 17 0f 4a 3d 56 6c 1c bd
       -0.08423232 0.053132106 0.049330797 -0.038189255
000020 23 a2 be bd ef ed 4b 3d fb 7e 96 3d 6e 75 62 bd
       -0.09308269 0.049787458 0.07348438 -0.05528777
000030 5a eb 0c bd ff ae 89 bd c6 bb 14 3e 19 82 6a bb
       -0.034404136 -0.06722831 0.14524755 -0.003578311
000040 b9 e7 ed 3d 96 ef 5d bc b3 80 4b 3d c5 88 15 bd
       0.11616463 -0.013545891 0.049683284 -0.036507387
000050 dd 21 bf 3d 03 ae c3 bd d9 71 9c 3d fb b9 1b bd
       0.09332631 -0.095546745 0.07638902 -0.03801916
000060 06 8b b7 3d 62 24 0f bd 31 c3 12 3d 4b ff c7 3d
       0.089620635 -0.034946807 0.03583068 0.0976549
000070 cf 76 a9 bd 90 d8 e3 3b 8c 38 55 3e f4 b5 35 bd
       -0.08274614 0.0069533065 0.20822352 -0.044362977
000080 47 b6 5c bd 7a 0a 0f bc 1e 22 a5 bc d8 eb 10 3b
       -0.05388477 -0.008730525 -0.02015787 0.002211323
000090 63 cc a1 3d 2c 38 10 bd 39 f7 a8 3d c3 56 43 3d
       0.07900312 -0.03520982 0.08250279 0.047690164
0000a0 65 61 5d bc b9 7c ac 3d 65 1e 0c be f4 c2 2c 3b
       -0.01351199 0.084222265 -0.1368347 0.0026361318
0000b0 c8 2c 2d bd 9e e7 79 3d 1b ea 9c 3d 36 6a f7 3c
       -0.042279035 0.061011903 0.076618396 0.030202013
0000c0 a8 60 45 bd c4 dd c8 bd 65 69 98 3c ff be 22 bd
       -0.04818788 -0.098079234 0.018604944 -0.03973293
0000d0 09 29 be bd fb db bb bc 54 0a 03 3e b5 2c 9f bc
       -0.092851706 -0.022932043 0.12796909 -0.019430498
0000e0 a8 df 96 3d 5b 4c 81 bd 7b 91 2f 3c a8 9d 89 3d
       0.07366878 -0.06313392 0.010715838 0.06719524
0000f0 e3 9b c9 bd bd 9b 1e 3d ca 09 29 3c b7 be ac bd
       -0.09844186 0.038722742 0.010317275 -0.084348135
000100 9f b0 1b 3e 70 2f 45 3d 99 e2 2d 3d 0b a6 d2 bc
       0.15204094 0.048140943 0.04245243 -0.025713941
000110 f9 c6 8a bd a7 d6 e1 bd e2 20 9e 3c 77 02 23 3e
       -0.06776232 -0.1102727 0.01930279 0.15918909
000120 e4 3e 53 bd 70 1f 9a bd 95 c7 08 bd 1e d4 71 3c
       -0.05157365 -0.075255275 -0.03339346 0.014760045
000130 01 77 a6 bd d7 7d b3 bd fd 46 1c 3e 4e 40 96 bd
       -0.08128167 -0.087642364 0.15261455 -0.07336484
000140 a9 a6 d5 bd b3 8d ae bd db 1d 22 bc 30 1b 82 bc
       -0.104321785 -0.08523121 -0.009894813 -0.015882105

fc3.weight f4 [10, 84]
000000 c3 5d 49 bd 2b eb e1 3d 8b 48 d2 3d 5a ad d3 3c
       -0.049161684 0.11031183 0.10267743 0.025839496
000010 40 50 9b 3d d5 f2 70 3d 8e d5 8a be de d3 86 bd
       0.07583666 0.058825333 -0.27116054 -0.06583379
000020 45 71 d3 3d 92 cd e2 3d 67 0c 85 3d e7 b4 1e be
       0.10324339 0.11074366 0.06496506 -0.15498696
000030 d4 57 4e be 0a 7c ba bd 3b 9b 00 3e 49 c2 ed 3b
       -0.20150691 -0.0910569 0.12559216 0.0072558266
000040 ac 25 46 be 39 b6 bc bd da d1 92 bd 02 34 5b bd
       -0.19350308 -0.09214444 -0.07168932 -0.053516395
000050 d1 38 eb 3d d9 4e e4 3b 7e 61 d2 bd 2e 64 cb 3d
       0.11485446 0.006967407 -0.102725014 0.09931217
000060 ba df 28 3e e4 1c 1d bd b5 b6 14 3d bc 98 8c bd
       0.16491595 -0.03835763 0.036307056 -0.06865069
000070 60 01 ff bc c2 b5 d4 3c ca 8b bf be 4f d1 0c 3e
       -0.031128585 0.025965575 -0.37411338 0.1375172
000080 36 6d 99 3d fa a6 31 3e db d3 55 bd ee 6e 0f 3d
       0.074915335 0.17348853 -0.052203994 0.0350179
000090 9d 55 9a bd 8b b2 02 3e f0 38 bf be f4 48 34 3e
       -0.07535861 0.12763421 -0.37348127 0.17605954
0000a0 d8 24 77 be 8a 28 87 be 2e 52 d2 bd f9 27 2e 3c
       -0.24135149 -0.26398116 -0.10269581 0.010629647
0000b0 91 44 7c 3e 02 5b 56 be e7 57 88 bd 52 8a 21 3d
       0.24635531 -0.20933154 -0.06657391 0.039438553
0000c0 76 8a b6 3e e8 db 07 3d 9c e6 9f 3d 71 cf be 3d
       0.35652512 0.033168703 0.07807657 0.0931691
0000d0 18 52 a9 bb 7d 01 1d 3e 08 56 9f be 93 4d a6 be
       -0.005167257 0.15332599 -0.31120324 -0.3248106
0000e0 7c cf 38 be 6a 53 5b be f4 ca 08 3d 01 79 86 3e
       -0.18047899 -0.21418539 0.033396676 0.26264194
0000f0 9d c9 41 3c 06 7d 8f 3e f6 bc 03 3c fd c8 cd 3d
       0.0118278535 0.28025073 0.008040657 0.10048101
000100 52 34 07 be 84 fe 9b 3e 0c bd 7c bd d0 17 7a 3d
       -0.13203552 0.30467618 -0.061703727 0.061057866
000110 1d fd 19 3d f4 aa a0 3d 9b f6 b7 bd 85 83 56 be
       0.037594903 0.07845107 -0.08982583 -0.20948608
000120 48 df 81 bc fd be dc bc c4 37 19 3f 1c f6 a7 bd
       -0.01585354 -0.026946539 0.59850717 -0.082012385
000130 f9 9a 28 bd 40 30 83 3e 35 81 94 be bf d3 19 be
       -0.04116342 0.2562275 -0.29004827 -0.15022181
000140 7e aa ec bc 12 ff ad bc 66 8e b1 3e 7e b9 cf be
       -0.02888989 -0.021239791 0.34678954 -0.40571207
000150 1a 53 e9 bd ab bd 91 3c 14 dc 06 be df 1f c1 bc
       -0.113928035 0.017790636 -0.1316989 -0.023574768
000160 f7 5a 56 3d 4f b6 d8 bc bd 39 99 3d 9e ec 34 3c
       0.052332845 -0.026454119 0.07481716 0.011042742
000170 f3 40 d2 bd 15 4a 1e 3d 6e 20 5f be 61 b3 12 bd
       -0.10266294 0.03864487 -0.21789715 -0.0358156
000180 81 2d 54 3e f6 3c 8d bd fb b2 8b be 9c b1 f7 bd
       0.20720483 -0.06896393 -0.2728499 -0.12094423
000190 0a e7 1c 3e 14 b3 c5 bd 00 ad 7f 3e 27 f1 a6 3d
       0.1532251 -0.09653297 0.24968338 0.08151465
0001a0 e8 c6 8f be 60 24 67 3d 15 17 18 3e 98 bb 4d 3c
       -0.2808144 0.056431174 0.14852555 0.012556933
0001b0 d7 65 e7 be 59 0a e7 bd c9 5a cd bd 7e 57 7c 3e
       -0.45194885 -0.112812705 -0.100270815 0.2464275
0001c0 c3 a6 63 be 17 86 4e be f8 ab b0 bd 8d 23 03 bd
       -0.22231583 -0.20168339 -0.086265504 -0.032016326
0001d0 34 64 ad bd 12 11 83 3c 5c 8d 2d bd 8d a9 de bb
       -0.08466378 0.01599935 -0.04237114 -0.0067951144
0001e0 d3 d9 d3 3e a7 eb 79 bd d7 52 5d 3d 6e 84 1c bd
       0.41377124 -0.06101575 0.05403408 -0.038212232
0001f0 97 03 03 3d 39 66 4c 3e db 15 6c bb 95 9e b7 bd
       0.031985845 0.1996087 -0.003602377 -0.08965794
000200 f8 92 00 bf 0c 36 05 bf e6 40 81 be 3e 2f f7 bd
       -0.50224257 -0.52035594 -0.25244826 -0.120695576
000210 76 47 b7 bc cc fd 07 3e 17 9b a6 bc a3 d0 58 3d
       -0.022372942 0.1328041 -0.020337624 0.052933346
000220 07 74 aa 3c b4 60 95 3d 94 f2 92 3e 06 70 3f be
       0.02080728 0.07293835 0.28700697 -0.18695077
000230 ec 53 b2 3e c6 57 07 3e 13 4e 3c bd a0 e9 5e 3d
       0.34829652 0.13217077 -0.045972895 0.05442202
000240 e2 0c 2a bd 4b 9a 86 be a3 83 b5 bc 0a e6 e8 bc
       -0.041516192 -0.2628959 -0.022157496 -0.028430004
000250 58 e0 71 bc 38 64 82 3d d1 e2 02 3f 11 34 a8 3d
       -0.01476296 0.063667715 0.51127344 0.08213056
000260 24 76 ac bc e5 22 66 3e cc 3e 29 be 04 69 4d bd
       -0.021052428 0.22474249 -0.16527861 -0.05014898
000270 7a a5 cf be b6 1b 61 bb c1 5f 9a bc 0a b2 ce be
       -0.40555936 -0.0034348792 -0.018844487 -0.40370208
000280 00 80 49 3d 80 79 5f 3c 5c 91 85 bc 89 61 cd bd
       0.049194336 0.013639808 -0.016304664 -0.10028369
000290 48 ff 15 be b0 5a f5 3d 3b 9a 97 bd 76 f3 20 3e
       -0.14648163 0.11980188 -0.07402464 0.15717873
0002a0 38 3c ce bd c6 85 ba 3b 60 3e 07 3e 8b 93 ac bd
       -0.100700796 0.0056922166 0.13207388 -0.08426579
0002b0 fe a0 8a 3c b4 fb cc bd fc ac 1f 3d f0 9f c5 bd
       0.01692247 -0.10008946 0.03898333 -0.09649646
0002c0 b4 40 44 3d 3a f4 b1 3d ac bc b1 3e 97 59 b5 ba
       0.04791327 0.08689161 0.34714258 -0.0013835904
0002d0 5e 6d 96 3e 7a dd 03 3d d2 82 fd 3d 90 d1 2f be
       0.29380316 0.03219364 0.123784676 -0.17169785
0002e0 a8 f4 b9 bd 02 cd eb 3c 05 3f 72 be 42 4e 06 be
       -0.090798676 0.028784279 -0.23656853 -0.1311579
0002f0 3e 65 27 bd 3d 0d 64 bd 47 e1 a0 3d 47 61 c5 bd
       -0.040868036 -0.055676688 0.07855468 -0.09637695
000300 e8 e5 57 3e 8a ec e9 3d 19 33 df bd bb d9 43 3e
       0.21083796 0.11422069 -0.10898418 0.19126026
000310 ec 41 9c 3e 92 81 3b be 4e 54 07 be f8 a9 12 bd
       0.30519044 -0.18311146 -0.13215753 -0.035806626
000320 e8 df 34 3d 52 bc d7 bd 2a 0b 71 3e ca a6 3f 3e
       0.044158846 -0.10533966 0.23539415 0.18715969
000330 a0 f3 56 be 21 c6 74 bd a9 10 79 bd 7c 96 df bd
       -0.20991373 -0.059759263 -0.060806904 -0.109173745
000340 33 49 1a 3e b9 c7 82 be 6e 09 f8 bd 86 3b a9 bd
       0.15066986 -0.25543 -0.121111736 -0.08263306
000350 2e 52 7e be 0e 8e f6 bd b1 0c 9e bc 70 c7 a5 bd
       -0.24836037 -0.120388135 -0.019293161 -0.0809468
000360 0c 03 77 bd c1 86 4d bc ce 96 b9 3d 0f 53 9b 3a
       -0.06030564 -0.012544335 0.09061967 0.0011850315
000370 c1 ab 82 bc 84 6c 6d bd db a2 5e 3d b7 49 00 be
       -0.01595104 -0.057964817 0.05435453 -0.1252812
000380 72 6b a5 bc 1d 9a 86 3c 3f 16 b6 bd 38 9d 9c 3e
       -0.020192835 0.016430909 -0.08890962 0.30588698
000390 c8 8d 84 3d 4e d4 1d bc 4d 63 91 3e e9 83 9a bd
       0.06472355 -0.009633137 0.28396073 -0.07544691
0003a0 ef b7 d3 3d 02 99 83 3e aa b0 df bc 46 76 aa 3c
       0.10337817 0.25702673 -0.02730592 0.02080835
0003b0 9b 0a b8 bd 34 7a 03 3c 11 9e 92 3d 24 dd 45 bd
       -0.08986398 0.008024741 0.07159055 -0.0483066
0003c0 07 07 2b be 0c df c5 3d e8 53 04 be 25 fe 03 be
       -0.167019 0.096616834 -0.12922633 -0.12889917
0003d0 8f b9 14 3d 4a 34 62 bc 46 b0 f0 3c 15 fa c2 bc
       0.036309775 -0.013806412 0.029380929 -0.023800889
0003e0 bb ad b2 bc c4 98 1f 3e 9e 94 b6 bd 47 1d 8f 3d
       -0.021811357 0.15585619 -0.08915065 0.06988006
0003f0 fc 5b 02 bd ba ca dd bc 99 99 e4 bd a0 6d 82 bd
       -0.031826004 -0.027074207 -0.11162109 -0.063685656

fc3.bias f4 [10]
000000 78 25 99 be 24 31 c3 3c de b4 2f 3c 82 3a a5 3d
       -0.299114 0.023827143 0.010724274 0.080678
000010 0d 78 a3 bd 40 9f b1 bd aa 2f 18 bd be c8 94 3d
       -0.07981882 -0.08672953 -0.03715483 0.07264851
000020 ce 85 0e 3e bc af 11 3d
       0.1391823 0.035567984
